model_results/model.pt (torch, 112223 bytes, 21 tensors)

gat1.W f4 [4, 8, 32]
-0.15954815 0.47083375 -0.040865567 0.33823866 0.3564524 0.2009611 0.09498489 -0.36929882
-0.042298734 0.32434747 0.26907453 0.153814 -0.38358024 0.17320555 0.32066604 -0.26950142
-0.00798977 0.24907245 0.42359263 -0.24474548 -0.056439605 -0.19458704 0.1574966 -0.0356493
0.36855632 0.30678186 0.43181786 -0.15125687 -0.3063867 -0.3202442 0.42273295 -0.3096325
-0.05713933 0.18345316 -0.117132775 0.17147309 0.17680627 0.24360017 -0.1708916 -0.029403714
0.26597112 0.07913649 -0.016233163 0.1885468 -0.20380808 0.39837882 0.2953146 -0.34962177
0.24646041 0.17856278 0.11833874 -0.22450703 0.08797044 -0.038844585 -0.46067023 0.34399164
0.36475083 0.1545102 -0.19428937 0.039679036 -0.26837108 0.2249547 0.39302865 -0.38581547
-0.24662757 0.26456928 0.0035896092 0.30906963 0.32932347 0.28804162 0.29663324 -0.20941404
-0.12863198 0.38313028 0.30767748 -0.051137596 -0.35062084 0.15974586 0.25126496 -0.03765569
-0.07218183 0.2966507 0.28710878 -0.23324484 -0.12461061 -0.34864146 0.18958035 -0.022966346
0.259977 0.35935158 0.28523746 -0.0686497 -0.2810705 -0.19841965 0.19546744 -0.04430946
-0.027560337 0.08995004 0.012176411 0.034118313 0.10178164 -0.07168785 0.007511881 -0.037855744
-0.021074142 -0.061324853 -0.011243775 -0.031594656 -0.05700581 -0.055040043 -0.034286615 -0.02036273
-0.023743384 0.0028728726 -0.10355124 -0.06524892 0.13117497 0.025494505 0.09100852 0.012773371
-0.035939064 -0.010612318 -0.058172952 0.05297297 0.009471022 -0.03848851 -0.05695712 -0.013977447
-0.07753116 -0.075072214 0.0079856375 -0.10424628 -0.07871107 0.112410195 0.07737483 0.100956514
0.09616286 -0.14499408 -0.116293654 0.049997184 -0.015289751 0.09193163 -0.05627462 -0.016840022
0.13524768 0.121570855 0.028665762 -0.0030639651 0.1385969 0.123137064 -0.13162531 0.15849145
-0.049663045 0.037977885 -0.06251223 -0.0044517703 -0.069008626 -0.025590353 0.111084566 -0.1268086
0.13685557 -0.07181046 0.105275005 -0.02185658 0.062629856 -0.09798157 0.036480874 0.07706163
-0.00058321434 0.01977822 -0.07627992 0.0039303717 0.012729723 -0.022255056 0.091367595 -0.046433683
0.120663755 -0.022233874 -0.03260436 -0.032280777 0.13393249 -0.0035857512 0.067919105 0.08529204
0.05473854 0.05892114 -0.08429805 0.13168406 0.056868423 -0.06271232 -0.0005811932 0.012443418
0.15401308 -0.1885213 -0.053596146 -0.10033284 -0.09562639 0.07315264 0.027752277 0.06599005
0.08069665 -0.020841131 -0.0337549 0.02998784 0.14931867 0.1003811 -0.0036327222 -0.08186371
0.020192066 -0.15073098 0.02553054 -0.075713605 -0.044558305 0.14573346 -0.04446719 0.09493616
-0.14118259 -0.0070217215 -0.05423974 -0.004567099 0.102429375 0.15305196 -0.05961079 0.03055125
-0.04241735 0.03567004 0.14826898 -0.012382873 -0.07685054 0.123373814 0.042539194 0.011410359
-0.0032163048 -0.014635065 0.002524317 -0.028841797 0.11323925 0.13719122 -0.04014774 -0.061074384
0.1077346 0.10467634 -0.020735687 0.06697275 0.1957057 0.103405446 -0.14085245 0.027326267
0.059005633 0.061164565 0.09074726 0.104056425 -0.033805914 0.0020914883 0.018367702 -0.07621082
00000000: 9760 23be 1f11 f13e a762 27bd 9e2d ad3e
00000010: ee80 b63e bfc8 4d3e 7087 c23d bc14 bdbe
00000020: 7041 2dbd df10 a63e 23c4 893e 6b81 1d3e
00000030: a164 c4be cc5c 313e 572e a43e 17fc 89be
00000040: 86e7 02bc d90c 7f3e 22e1 d83e 8f9e 7abe
00000050: 372d 67bd d341 47be ca46 213e 0005 12bd
00000060: 6ab3 bc3e 8312 9d3e 3b17 dd3e 15e3 1abe
00000070: b8de 9cbe 0cf7 a3be 7470 d83e 2788 9ebe
00000080: ee0a 6abd 25db 3b3e 4fe3 efbd a496 2f3e
00000090: b40c 353e 5372 793e 35fe 2ebe 0fe0 f0bc
000000a0: 5e2d 883e 5012 a23d 69fb 84bc 6a12 413e
000000b0: 11b3 50be 4ff8 cb3e 7a33 973e a001 b3be
000000c0: 1e60 7c3e 29d9 363e 955b f23d 2ce5 65be
000000d0: d929 b43d 801b 1fbd f8dc ebbe ac1f b03e
000000e0: 9fc0 ba3e ec37 1e3e cbf3 46be 7c86 223d
000000f0: ef67 89be 865a 663e 0d3b c93e 9b89 c5be
00000100: f08b 7cbe a075 873e a63f 6b3b 603e 9e3e
00000110: 169d a83e 317a 933e 50e0 973e a270 56be
00000120: 1ab8 03be a729 c43e e787 9d3e a875 51bd
00000130: 9384 b3be 6b94 233e cda5 803e da3c 1abd
00000140: 11d4 93bd 9ae2 973e ecff 923e bcd7 6ebe
00000150: d933 ffbd 2281 b2be 5a21 423e eb23 bcbc
00000160: b51b 853e eefc b73e a50a 923e 3798 8cbd
00000170: 79e8 8fbe 852e 4bbe 9e28 483e d67d 35bd
00000180: 37c6 e1bc ba37 b83d 927f 473c a5bf 0b3d
00000190: e472 d03d 14d1 92bd 3a26 f63b a00e 1bbd
000001a0: aea3 acbc c52f 7bbd cf37 38bc 6669 01bd
000001b0: ed7e 69bd ab71 61bd 1f70 0cbd bdcf a6bc
000001c0: 7c81 c2bc ce46 3c3b ac12 d4bd 3aa1 85bd
000001d0: bb52 063e dad9 d03c ad62 ba3d 6747 513c
000001e0: d734 13bd 4adf 2dbc c346 6ebd 2ffa 583d
000001f0: 582c 1b3c 21a6 1dbd de4b 69bd a901 65bc
00000200: a8c8 9ebd 76bf 99bd 31d6 023c 137f d5bd
00000210: 4533 a1bd 5137 e63d b276 9e3d 4ac2 ce3d
00000220: 09f1 c43d 5479 14be 5e2b eebd d9c9 4c3d
00000230: dd81 7abc a746 bc3d 3780 66bd 16f4 89bc
00000240: 5e7e 0a3e 24fa f83d 76d4 ea3c cecc 48bb
00000250: 59ec 0d3e 492f fc3d c9c8 06be 954b 223e
00000260: 7a6b 4bbd b38e 1b3d 6906 80bd 28e0 91bb
00000270: 6554 8dbd dca2 d1bc 4e80 e33d 1dda 01be
00000280: de23 0c3e 5d11 93bd 6c9a d73d 920c b3bc
00000290: 1544 803d 90aa c8bd f86c 153d 7dd2 9d3d
000002a0: dae2 18ba ef05 a23c a638 9cbd 59ca 803b
000002b0: 5490 503c 3c50 b6bc ef1e bb3d 3f31 3ebd
000002c0: 8f1e f73d d023 b6bc 268c 05bd d938 04bd
000002d0: 9925 093e ecfe 6abb 2c19 8b3d 98ad ae3d
000002e0: 8535 603d 4b57 713d 75a4 acbd 30d8 063e
000002f0: ddee 683d 516f 80bd 375b 18ba 7adf 4b3c
00000300: 9bb5 1d3e ba0b 41be a287 5bbd 4e7b cdbd
00000310: c5d7 c3bd 0dd1 953d be58 e33c cb25 873d
00000320: 4944 a53d 05bb aabc 9442 0abd 0fa9 f53c
00000330: fee6 183e 9b94 cd3d f712 6ebb 29a8 a7bd
00000340: d569 a53c 3959 1abe 6c25 d13c bc0f 9bbd
00000350: c582 36bd 273b 153e 3a23 36bd e46d c23d
00000360: 2b92 10be 7816 e6bb 7d2a 5ebd 9aa7 95bb
00000370: 7ec6 d13d a7b9 1c3e 722a 74bd 9d46 fa3c
00000380: d1bd 2dbd bf1a 123d d3d3 173e 89e1 4abc
00000390: d163 9dbd 69ab fc3d 943d 2e3d 84f2 3a3c
000003a0: a4c8 52bb e9c7 6fbc 036f 253b a245 ecbc
000003b0: fbe9 e73d db7b 0c3e f571 24bd 2229 7abd
000003c0: f5a3 dc3d 8d60 d63d e3dd a9bc 0229 893d
000003d0: 1367 483e 3cc6 d33d a03b 10be 56db df3c
000003e0: e4af 713d b287 7a3d b3d9 b93d 891b d53d
000003f0: 1278 0abd 5a11 093b dd77 963c 6b14 9cbd

gat1.a_src f4 [4, 32, 1]
0.3255919 -0.2653021 -0.05294643 -0.013482196 -0.23120598 0.018577607 -0.22779824 0.19019948
0.16056001 -0.3131678 -0.16478285 0.09763029 0.40412343 0.28224784 0.0066050068 -0.23961808
0.13291182 -0.14853635 -0.2774954 -0.086394824 0.26492345 0.22534235 -0.4807972 0.1794176
-0.1611628 -0.19342826 -0.31304443 0.06124073 0.050138183 0.5092573 -0.07436885 -0.24639745
0.013310578 -0.03486871 0.0021624074 0.035647467 0.015095554 0.032280557 -0.10999148 -0.03436141
-0.10818587 0.019052155 -0.0078195855 0.006551384 0.0490315 0.05488956 -0.009775343 0.03466433
0.022862585 0.058419384 0.015490394 0.10069895 -0.054287437 -0.019630538 0.014165242 0.019757668
0.029836763 0.0027845295 0.08456998 -0.031282194 0.010789797 0.02152486 -0.06298754 -0.05568064
0.016011395 -0.14959918 0.16966806 0.09434547 -0.11769147 -0.18138786 0.046133142 0.033061635
0.11344256 0.066130236 -0.072209 -0.022836858 -0.19197465 0.077963345 -0.03305887 -0.104033194
0.115504846 0.009808237 0.042928506 -0.11202936 0.16302432 -0.14238548 -0.1634797 -0.23207337
0.12839353 0.16566922 -0.23213868 0.25626755 0.1275833 0.11219879 -0.11695092 0.050346103
0.3534074 0.13537519 0.47374532 0.31835887 0.08523595 -0.25254 -0.053104334 0.2702553
-0.21354888 -0.38500494 0.21048957 -0.21381634 0.40985778 -0.010588258 0.1959526 0.0146077685
-0.019144591 0.14061056 -0.25050026 0.0029719512 0.00035834528 0.020685462 0.07574591 0.031508535
0.27224955 0.038106922 0.06358089 -0.46862832 0.06775115 0.3366292 0.05645526 0.0249936
00000000: fbb3 a63e add5 87be 5bde 58bd 6ee4 5cbc
00000010: 43c1 6cbe 1130 983c f143 69be a7c3 423e
00000020: d869 243e 8857 a0be d6bc 28be 64f2 c73d
00000030: 44e9 ce3e ca82 903e d06e d83b 715e 75be
00000040: 091a 083e ea19 18be e113 8ebe c5ef b0bd
00000050: 0ca4 873e 25c0 663e 0d2b f6be 3fb9 373e
00000060: dc07 25be 0f12 46be 5c47 a0be 8fd7 7a3d
00000070: b25d 4d3d b05e 023f b24e 98bd 9d4f 7cbe
00000080: 9c14 5a3c 7ed2 0ebd 2db7 0d3b 1403 123d
00000090: 5853 773c 9e38 043d 3743 e1bd 8dbe 0cbd
000000a0: 8e90 ddbd 4413 9c3c b81d 00bc feac d63b
000000b0: 41d5 483d e0d3 603d c328 20bc 2ffc 0d3d
000000c0: 514a bb3c 2a49 6f3d 6ccb 7d3c 403b ce3d
000000d0: 815c 5ebd 39d0 a0bc 5515 683c d5da a13c
000000e0: 3a6c f43c a77c 363b 0733 ad3d c221 00bd
000000f0: b0c7 303c e754 b03c 9dff 80bd 6211 64bd
00000100: 542a 833c 8730 19be 77bd 2d3e 3338 c13d
00000110: 3a08 f1bd bdbd 39be 1bf6 3c3d a36b 073d
00000120: 9354 e83d 4a6f 873d 50e2 93bd 5d14 bbbc
00000130: 0195 44be 3fab 9f3d bd68 07bd 5b0f d5bd
00000140: ce8d ec3d bab2 203c cdd5 2f3d a66f e5bd
00000150: d9ef 263e 80cd 11be 3967 27be a4a4 6dbe
00000160: 9879 033e 31a5 293e c3b5 6dbe 8035 833e
00000170: 32a5 023e 7bc8 e53d f783 efbd b737 4e3d
00000180: d1f1 b43e cb9f 0a3e bf8e f23e efff a23e
00000190: 3090 ae3d ec4c 81be ee83 59bd e75e 8a3e
000001a0: 8fac 5abe 5e1f c5be 948a 573e acf2 5abe
000001b0: e1d8 d13e 5f7a 2dbc cca7 483e 6c55 6f3c
000001c0: 1ed5 9cbc 37fc 0f3e 9241 80be 11c5 423b
000001d0: 4ae0 bb39 8f74 a93c ac20 9b3d 180f 013d
000001e0: 4b64 8b3e 0116 1c3d b336 823d 0df0 efbe
000001f0: 1dc1 8a3d aa5a ac3e a13d 673d 61bf cc3c

gat1.a_dst f4 [4, 32, 1]
0.09876822 -0.12092435 0.26861453 -0.18225095 0.012513358 -0.26443872 -0.042159043 0.07017751
-0.1850441 -0.21197055 -0.14265695 -0.20510542 0.20872267 -0.24162899 -0.09212577 -0.0067682667
0.06552847 -0.1730607 -0.1470116 0.1417011 0.23796044 0.120668754 0.025198856 0.014239129
-0.12856318 -0.3128905 0.16045082 0.061447795 0.23762177 0.06199765 -0.24386212 0.012211858
-0.18111287 -0.09378313 -0.17295331 0.023375798 0.023364276 -0.21630827 0.034326255 -0.021060852
0.08172358 -0.1708713 -0.06491293 -0.13898078 0.12897106 -0.3316067 -0.06333351 -0.17900713
0.114696614 -0.2076091 -0.21361569 -0.12564142 -0.1382694 0.18136856 0.111514 -0.17043634
-0.067023076 0.14542052 -0.1594696 -0.086748965 0.04801806 0.020191628 -0.106440656 0.11456669
0.33513063 0.13571359 -0.16541107 0.14294052 -0.08585579 -0.04500604 -0.0023817052 0.11908761
-0.056291975 0.30353907 0.124331154 -0.33178562 0.16426042 0.044916496 -0.17158395 0.049751025
-0.13337144 0.0097717475 0.15692398 -0.18688801 -0.09511329 -0.09804599 0.20191765 0.1461589
0.20461914 0.06037947 0.08628059 -0.10316977 -0.027122179 -0.30565825 0.08308634 -0.12194736
0.09145199 0.13277107 0.30393878 0.19914886 0.042782962 -0.24498975 -0.020764846 0.06959276
-0.099655144 -0.2982703 0.1774045 0.032576427 0.26809806 0.1010295 0.036857527 0.07437323
-0.041227024 0.15279868 -0.07420422 -0.004410785 0.03782837 0.19723651 0.073042706 0.043421257
0.14302821 0.14193824 0.09862199 -0.27718818 0.05607688 0.19112451 0.17454262 -0.11623031
00000000: fe46 ca3d 30a7 f7bd d887 893e fe9f 3abe
00000010: d404 4d3c 8364 87be f6ae 2cbd 3ab9 8f3d
00000020: 337c 3dbe cf0e 59be aa14 12be 2807 52be
00000030: 65bb 553e 976d 77be 70ac bcbd 56c8 ddbb
00000040: ca33 863d d336 31be 358a 16be 181a 113e
00000050: e7ab 733e 2e21 f73d d56d ce3c 3c4b 693c
00000060: 11a6 03be 2f33 a0be 384d 243e afb0 7b3d
00000070: 1f53 733e 3ff1 7d3d feb6 79be 3f14 483c
00000080: a775 39be 5f11 c0bd ac1a 31be 9a7e bf3c
00000090: 7066 bf3c ea7f 5dbe b099 0c3d cf87 acbc
000000a0: b15e a73d e3f8 2ebe 12f1 84bd fa50 0ebe
000000b0: fd10 043e 5ac8 a9be 00b5 81bd a54d 37be
000000c0: 0fe6 ea3d 7b97 54be 12be 5abe 25a8 00be
000000d0: 7e96 0dbe aeb8 393e 7461 e43d dd86 2ebe
000000e0: 6543 89bd 1ee9 143e 004c 23be 71a9 b1bd
000000f0: 96ae 443d ea68 a53c 8ffd d9bd f1a1 ea3d
00000100: 3e96 ab3e 81f8 0a3e 8561 29be 005f 123e
00000110: 29d5 afbd 4158 38bd 6216 1cbb 34e4 f33d
00000120: 6a92 66bd 7969 9b3e 55a1 fe3d cedf a9be
00000130: e233 283e 5cfa 373d b4b3 2fbe bbc7 4b3d
00000140: 8692 08be ae19 203c aeb0 203e 925f 3fbe
00000150: c2ca c2bd 56cc c8bd 80c3 4e3e aeaa 153e
00000160: ae87 513e 7750 773d e1b3 b03d ac4a d3bd
00000170: 552f debc 3d7f 9cbe 2c29 aa3d 8abf f9bd
00000180: 2e4b bb3d 24f5 073e dd9d 9b3e aeed 4b3e
00000190: 303d 2f3d 98de 7abe 0a1b aabc a686 8e3d
000001a0: ff17 ccbd e2b6 98be 86a9 353e dc6e 053d
000001b0: 2644 893e 8ee8 ce3d ebf7 163d fe50 983d
000001c0: abdd 28bd 4277 1c3e 62f8 97bd 5988 90bb
000001d0: ecf1 1a3d 5ef8 493e 6a97 953d 7dda 313d
000001e0: fd75 123e 4258 113e 53fa c93d 9ceb 8dbe
000001f0: dfb0 653d 25b6 433e 4dbb 323e 280a eebd

gat2.W f4 [4, 128, 32]
0.049909998 -0.047020547 -0.0569063 0.0702679 -0.04339214 0.07858862 -0.068352185 0.07842071
0.05512183 0.001592713 -0.053288586 -0.06117593 0.025726069 -0.038257007 0.075731784 0.0013981814
0.07764477 0.04136573 0.096974984 0.016087543 -0.08876705 -0.019261727 0.015695328 -0.0878007
0.049321238 0.01819592 -0.0007987819 0.06656901 -0.051444653 -0.05134031 -0.0026865816 -0.0045488165
-0.04866829 0.045677923 0.16667503 -0.22019398 0.18500416 -0.076860055 0.17278016 -0.20934735
-0.14795999 -0.15866157 0.17506446 -0.016657514 -0.2366367 0.10339436 -0.08044509 0.07160495
-0.09533897 -0.17717479 -0.23093145 0.054395296 0.17412336 0.16350468 -0.0893222 0.0858661
-0.05525506 -0.03838536 0.02006111 -0.2082572 0.12710942 -0.04183484 0.07090485 0.07235024
-0.058150474 0.008672416 0.10921588 0.03948999 0.009395039 -0.061512116 0.03198904 -0.034402043
-0.051871486 -0.018740777 -0.028901631 -0.013736313 0.006436248 0.022193477 -0.037145473 0.036965672
-0.04737601 0.019265749 -0.0553976 -0.023702359 0.087644115 0.07512396 -0.051071715 0.06488742
-0.02537409 0.03580016 -0.012497377 -0.017819311 0.08345878 -0.029412493 0.042138267 0.06709084
0.0077541103 0.022254169 0.044263486 -0.14549235 0.0048420248 -0.018369153 0.010949023 -0.04319095
-0.003370161 -0.10861999 0.0826 0.019923488 -0.0075355684 0.021919467 -0.06028114 0.0076898774
0.017713057 -0.096133985 -0.018653367 0.031214252 -0.00844715 0.0012769133 -0.0038633875 0.022251692
-0.028799793 -0.023001757 0.011175058 -0.07873477 -0.017328251 0.009227822 0.0030709358 -0.017079225
0.017243398 0.06153412 0.08870187 -0.17040902 0.051500194 -0.0817465 0.045311633 -0.08278976
-0.073337406 -0.13321373 0.09913205 0.043499466 -0.046815988 0.0487305 -0.06966018 0.02720658
-0.02712478 -0.1091774 -0.05010514 0.006707539 0.061932903 0.009460071 -0.045271937 0.039868522
-0.057018198 -0.037046697 -0.040591788 -0.107962474 0.029248485 0.058601983 0.008008374 0.054663587
-0.0041056145 0.013762362 0.06027228 -0.08805207 0.050040524 -0.1282106 0.051260896 -0.025018381
-0.08010947 -0.025054317 0.009767703 0.08275464 -0.03337576 0.021243384 -0.090100154 0.03565153
-0.028792167 -0.040714454 -0.08167187 -0.030361261 0.040307008 0.04674558 -0.04017816 0.12253483
-0.05519724 0.039484467 -0.06660273 -0.07651351 0.056469984 0.049439456 -0.014445778 0.08563809
-0.03770553 -0.0077396347 0.031081032 -0.004660679 0.044486713 -0.029383011 0.05686604 0.01981019
-0.048646554 -0.0021204688 -0.03852335 -0.007124994 -0.0019522237 -0.019885216 -0.011808464 0.02803238
-0.05603748 0.03543584 -0.017056806 -0.0012417668 0.054645803 0.070138566 -0.006878654 -0.0056072096
-0.04057011 0.011364373 -0.03147841 -0.02284143 0.042530403 -0.0009410986 0.0051367665 0.0672781
-0.030749049 -0.024058424 -0.004337832 0.118332475 -0.015422326 0.010954791 -0.008978963 0.05678508
0.039045095 0.0903055 -0.054734368 0.0022959134 0.044047397 -0.014267914 0.027636187 0.018765153
-0.0067551 0.070571855 -0.004245013 -0.010646754 0.0059253313 0.019880813 -0.02903579 -0.010268326
0.001967546 0.015383685 -0.016525827 0.03372523 0.04685449 -0.019064182 -0.017256387 0.0055688187
00000000: 6d6e 4c3d 9e98 40bd 9516 69bd 9ee8 8f3d
00000010: f5bb 31bd 12f3 a03d 3bfc 8bbd 0a9b a03d
00000020: 6ec7 613d 94c2 d03a 2245 5abd 9d93 7abd
00000030: 7abf d23c 61b3 1cbd 4419 9b3d 2f43 b73a
00000040: 3904 9f3d 1d6f 293d d29a c63d 06ca 833c
00000050: 80cb b5bd c5ca 9dbc 7d93 803c dad0 b3bd
00000060: 1105 4a3d 9c0f 953c 5965 51ba 5555 883d
00000070: a1b7 52bd 384a 52bd 5c11 30bb 3d0e 95bb
00000080: 6758 47bd c618 3b3d dcac 2a3e 887a 61be
00000090: bb71 3d3e ce68 9dbd 48ed 303e 275f 56be
000000a0: d382 17be 2e78 22be 1944 333e 5775 88bc
000000b0: e450 72be 6cc0 d33d 65c0 a4bd 9ea5 923d
000000c0: 1441 c3bd 4f6d 35be 4b79 6cbe 9acd 5e3d
000000d0: 654d 323e c56d 273e 8fee b6bd 91da af3d
000000e0: 2153 62bd f839 1dbd 3257 a43c 6041 55be
000000f0: f928 023e 025b 2bbd 9036 913d 5d2c 943d
00000100: 312f 6ebd c016 0e3c 93ac df3d 41c0 213d
00000110: a6ed 193c 21f4 7bbd f106 033d 28e9 0cbd
00000120: 3277 54bd 4286 99bc 1dc3 ecbc 460e 61bc
00000130: 29e7 d23b 18cf b53c da25 18bd 5169 173d
00000140: 590d 42bd 34d3 9d3c 98e8 62bd 732b c2bc
00000150: c27e b33d 97da 993d 9330 51bd b2e3 843d
00000160: 53dd cfbc 30a3 123d ccc1 4cbc cef9 91bc
00000170: 70ec aa3d 78f2 f0bc 2d99 2c3d ec66 893d
00000180: 3116 fe3b 604e b63c a14d 353d f2fb 14be
00000190: d9a9 9e3b e87a 96bc 8863 333c fee8 30bd
000001a0: ebdd 5cbb 2874 debd 302a a93d 9536 a33c
000001b0: eeec f6bb 7490 b33c 5be9 76bd 5efb fb3b
000001c0: f91a 913c e5e1 c4bd f2ce 98bc 08b5 ff3c
000001d0: ea65 0abc 1a5e a73a e330 7dbb 2e49 b63c
000001e0: 8bed ebbc 2e6e bcbc 9717 373c b23f a1bd
000001f0: faf3 8dbc 4a30 173c c141 493b bbe9 8bbc
00000200: 0742 8d3c 340b 7c3d 53a9 b53d b47f 2ebe
00000210: def1 523d b66a a7bd b198 393d ad8d a9bd
00000220: ec31 96bd 2e69 08be bf05 cb3d 7f2c 323d
00000230: 1fc2 3fbd a299 473d ffa9 8ebd 55e0 de3c
00000240: c934 debc 6798 dfbd 0c3b 4dbd eaca db3b
00000250: 5bad 7d3d 6afe 1a3c 116f 39bd 2d4d 233d
00000260: ea8b 69bd 47be 17bd 9343 26bd 6e1b ddbd
00000270: 859a ef3c a208 703d 8e35 033c ede6 5f3d
00000280: 6488 86bb 887b 613c 11e0 763d a554 b4bd
00000290: 4bf7 4c3d a449 03be f2f6 513d 59f3 ccbc
000002a0: 6f10 a4bd b63e cdbc b708 203c 447b a93d
000002b0: 05b5 08bd 9b06 ae3c 6e86 b8bd 5707 123d
000002c0: 8ddd ebbc 33c4 26bd 9543 a7bd 2eb8 f8bc
000002d0: f618 253d 4b78 3f3d db91 24bd 8af3 fa3d
000002e0: 8016 62bd 77ba 213d 0367 88bd 1db3 9cbd
000002f0: 124d 673d 0781 4a3d fcad 6cbc 0663 af3d
00000300: 1d71 1abd c39c fdbb a69d fe3c 9cb8 98bb
00000310: b337 363d a4b4 f0bc 5dec 683d fb48 a23c
00000320: 9c41 47bd 90f7 0abb a9ca 1dbd c878 e9bb
00000330: c2e1 ffba 52e6 a2bc 4a78 41bc 29a4 e53c
00000340: 8e87 65bd 2c25 113d b7ba 8bbc c8c2 a2ba
00000350: 47d4 5f3d cfa4 8f3d 5566 e1bb afbc b7bb
00000360: d82c 26bd a331 3a3c 81ef 00bd f31d bbbc
00000370: 5c34 2e3d 0fb4 76ba 5252 a83b 1ac9 893d
00000380: 6ee5 fbbc 2c16 c5bc 5f24 8ebb 4c58 f23d
00000390: ecad 7cbc b97b 333c 801c 13bc 7997 683d
000003a0: c0ed 1f3d 17f2 b83d 2531 60bd 0977 163b
000003b0: 0b6b 343d f8c3 69bc 4965 e23c 61b9 993c
000003c0: e359 ddbb fa87 903d c019 8bbb b96f 2ebc
000003d0: 4829 c23b 16dd a23c 77dc edbc 7b3c 28bc
000003e0: f2f1 003b da0b 7c3c 2c61 87bc 7723 0a3d
000003f0: 7eea 3f3d 7d2c 9cbc 445d 8dbc a37a b63b

gat2.a_src f4 [4, 32, 1]
-0.1712549 -0.39276704 0.28025258 0.3470006 0.01361797 0.034254774 0.019392313 0.2836031
-0.09945421 0.095451005 -0.4393567 -0.15132253 0.37143084 -0.32800567 -0.122230195 -0.087934665
-0.25383258 0.4596781 0.010557485 -0.34409344 0.14410539 0.16570678 -0.055147223 0.025511574
-0.17553371 0.18461764 0.018207356 0.2123903 -0.011270113 -0.0180597 -0.2310789 0.09156341
0.12812163 -0.3064261 -0.12671211 0.31836268 -0.16140634 -0.024664167 -0.02549217 0.30385786
0.2689054 0.53387606 -0.30048555 0.17902431 0.36610165 -0.22730328 -0.13674046 -0.02757815
-0.16405544 0.62193745 0.29326153 -0.06693637 0.001958199 -0.2072211 0.07870344 0.08565521
-0.16394146 0.34894097 -0.19584659 -0.083670855 -0.073254265 0.5017803 -0.42847392 -0.011236341
0.03187512 -0.21178618 -0.028074136 0.2860225 -0.13354063 -0.066178255 -0.101700336 0.17473619
0.090124324 0.36162457 -0.13847595 0.11311034 0.28127295 -0.25273108 -0.22150691 0.053636264
0.075598 0.47364488 0.38007566 -0.12530127 -0.13339557 -0.10300135 0.196482 0.11924597
-0.259946 0.12225424 0.03412844 0.1934852 -0.034132183 0.32254836 -0.3253892 -0.030715877
-0.19399945 -0.24320874 -0.24766667 0.44352537 -0.3912778 -0.07676359 -0.10037337 0.5358144
-0.10829094 0.38663337 -0.3542334 0.35916185 0.56847733 -0.57209444 -0.32094994 -0.037415307
-0.1643711 0.514475 0.2054906 -0.33543923 0.0138403615 -0.12732123 0.29539838 0.087354094
-0.049047183 0.14713609 -0.081881404 0.15463932 -0.27643624 0.5362908 -0.5178804 -0.13125655
00000000: 725d 2fbe c318 c9be 447d 8f3e 10aa b13e
00000010: e81d 5f3c bc4e 0c3d a1dc 9e3c 6d34 913e
00000020: a6ae cbbd d17b c33d 5df3 e0be 4bf4 1abe
00000030: 2f2c be3e 5cf0 a7be d353 fabd 1717 b4bd
00000040: 58f6 81be ee5a eb3e 4df9 2c3c 042d b0be
00000050: 5d90 133e 0aaf 293e 0ee2 61bd a6fd d03c
00000060: 1cbf 33be 680c 3d3e 9827 953c d87c 593e
00000070: 48a6 38bc f0f1 93bc f29f 6cbe 9985 bb3d
00000080: 5132 033e e2e3 9cbe d2c0 01be 6f00 a33e
00000090: b447 25be 820c cabc f5d4 d0bc 4293 9b3e
000000a0: f8ad 893e 1aac 083f 3ed9 99be 2652 373e
000000b0: ad71 bb3e 31c2 68be b105 0cbe 93eb e1bc
000000c0: 26fe 27be 4b37 1f3f 6026 963e f015 89bd
000000d0: 2155 003b c531 54be 452f a13d 006c af3d
000000e0: 45e0 27be 64a8 b23e 028c 48be a05b abbd
000000f0: 5506 96bd ac74 003f ef60 dbbe a118 38bc
00000100: 7c8f 023d 7ade 58be bbfb e5bc 8b71 923e
00000110: e0be 08be 7788 87bd 4448 d0bd 0bee 323e
00000120: 1a93 b83d db26 b93e a4cc 0dbe 65a6 e73d
00000130: 0203 903e f865 81be b5d2 62be b3b1 5b3d
00000140: 20d3 9a3d 9581 f23e 4799 c23e fa4e 00be
00000150: d998 08be 5ff2 d2bd 9432 493e 3b37 f43d
00000160: a417 85be 6e60 fa3d 43ca 0b3d fc20 463e
00000170: 30ce 0bbd 0f25 a53e 6a99 a6be dd9f fbbc
00000180: cba7 46be b60b 79be 559c 7dbe c215 e33e
00000190: 9055 c8be 3b36 9dbd 8e90 cdbd 222b 093f
000001a0: a4c7 ddbd cff4 c53e 155e b5be 10e4 b73e
000001b0: bb87 113f c874 12bf 8d53 a4be cb40 19bd
000001c0: e650 28be a2b4 033f 216c 523e b1be abbe
000001d0: afc2 623c 7f60 02be 753e 973e b4e6 b23d
000001e0: b3e5 48bd d8aa 163e 70b1 a7bd c559 1e3e
000001f0: 0d89 8dbe 5b4a 093f cf93 04bf 1e68 06be

gat2.a_dst f4 [4, 32, 1]
-0.23895435 -0.20695148 -0.28734562 0.34463477 -0.4062049 0.14594202 -0.24860328 0.39221647
0.16930996 0.20118327 -0.22594003 -0.26521972 0.26499343 -0.23005854 0.22689748 -0.13889098
-0.03397351 0.26616633 0.19849701 -0.38535592 -0.20541847 0.052702937 0.14261334 -0.10484308
0.097522296 0.13983664 0.21203 0.20535551 0.04042159 -0.19163212 -0.117617875 -0.21272029
0.1112222 -0.04105698 -0.22899263 0.13743295 -0.14395957 0.009559314 -0.1322459 0.095697366
0.18188131 0.20704517 0.06623892 -0.046296958 0.047801528 0.01699835 0.15675402 0.08659927
0.13122706 0.04829968 0.21941896 0.21564384 -0.1606466 -0.22393829 0.16310528 0.17242092
0.09894102 -0.085562974 -0.15920065 0.1060228 0.055304054 0.08503056 0.006849864 -0.17643918
0.13753061 0.02375361 -0.059381057 0.093822226 -0.08055576 0.06583998 0.14217766 0.19492649
-0.092891626 0.12087819 -0.04298644 -0.04595637 0.129158 0.072075956 -0.10496981 -0.28385493
0.22929664 -0.053709425 0.16818894 0.11895754 -0.08781628 -0.2784286 0.11419484 -0.05552072
0.1584448 -0.118796304 -0.21054478 -0.04180744 -0.26534906 0.17475161 0.034544494 -0.13320002
0.10297155 0.13996142 -0.28555655 -0.024691148 -0.15523773 0.11033945 -0.15693188 0.08402961
0.3044217 0.21900602 -0.013440368 -0.044142615 0.08356813 -0.024809018 0.07577197 -0.08856777
-0.0012290789 0.06766977 0.2762566 0.005310497 -0.15884992 -0.24138995 0.15767981 0.04817345
0.22546518 -0.034831528 0.020390937 0.25486425 -0.17648499 0.07948516 -0.08210074 -0.034079686
00000000: 73b0 74be 17eb 53be f71e 93be f873 b03e
00000010: 17fa cfbe d371 153e dc91 7ebe 99d0 c83e
00000020: 975f 2d3e fd02 4e3e d35c 67be e1ca 87be
00000030: 38ad 873e 7794 6bbe d057 683e 7039 0ebe
00000040: cf27 0bbd f446 883e cd42 4b3e 5f4d c5be
00000050: 3859 52be 09df 573d 3b09 123e f8b7 d6bd
00000060: c5b9 c73d 5631 0f3e 641e 593e b748 523e
00000070: 1c91 253d 363b 44be a4e1 f0bd 59d3 59be
00000080: 77c8 e33d 5d2b 28bd 0b7d 6abe 39bb 0c3e
00000090: 236a 13be ab9e 1c3c 786b 07be fbfc c33d
000000a0: 183f 3a3e a603 543e 45a8 873d e1a1 3dbd
000000b0: 89cb 433d 2040 8b3c 2084 203e f55a b13d
000000c0: 6360 063e e3d5 453d 5daf 603e bdd1 5c3e
000000d0: 8b80 24be 1450 65be 1205 273e 1c8f 303e
000000e0: 97a1 ca3d a43b afbd 7f05 23be 7b22 d93d
000000f0: 8186 623d 8124 ae3d d374 e03b 79ac 34be
00000100: d3d4 0c3e ee96 c23c 8d39 73bd de25 c03d
00000110: 6bfa a4bd 1dd7 863d 0597 113e cf9a 473e
00000120: f73d bebd fc8e f73d 8d12 30bd bf3c 3cbd
00000130: ff41 043e 8f9c 933d 69fa d6bd 6f55 91be
00000140: bdcc 6a3e 6afe 5bbd b939 2c3e 03a0 f33d
00000150: 06d9 b3bd 328e 8ebe fcde e93d b269 63bd
00000160: 5b3f 223e 7a4b f3bd 0d99 57be 473e 2bbd
00000170: d5db 87be 16f2 323e 877e 0d3d 9665 08be
00000180: bfe2 d23d 0c52 0f3e 7834 92be 1745 cabc
00000190: a4f6 1ebe a6f9 e13d c0b2 20be b717 ac3d
000001a0: 29dd 9b3e 1d43 603e fd34 5cbc e3ce 34bd
000001b0: c525 ab3d 483c cbbc 562e 9b3d 0563 b5bd
000001c0: 0b19 a1ba 7396 8a3d 8171 8d3e ad03 ae3b
000001d0: 8ea9 22be ed2e 77be d176 213e 8651 453d
000001e0: 58e0 663e 81ab 0ebd e50a a73c 917d 823e
000001f0: 7bb8 34be 1ec9 a23d 6f24 a8bd 2497 0bbd

temporal_attention.attention.in_proj_weight f4 [96, 32]
0.06354175 0.020611957 0.12241996 0.045991495 0.08143224 -0.12443536 0.014657878 0.03206925
0.004271746 -0.06672689 -0.004459395 -0.008668967 0.051011592 0.0084967865 -0.033475097 -0.00825793
-0.12135087 -0.0029503116 -0.028374989 -0.0058595794 0.09908247 0.010467568 0.0055099917 -0.072073795
-0.035874963 -0.027728952 -0.039169624 0.064501666 -0.037170194 0.11108117 0.0060674218 0.083552696
0.01910149 -0.024752919 0.032848608 0.132913 -0.122997165 0.061049778 0.013950696 -0.08520102
0.026022198 0.026346572 0.01676532 0.0601627 0.0109564 0.00978894 -0.07243246 0.022500517
0.08311183 0.04141534 -0.09311759 0.004628706 -0.01600294 0.00177125 -0.12682131 -0.114668
0.030454868 -0.033571556 -0.030957324 -0.06038082 -0.054315764 -0.05082098 -0.061932623 0.035010092
0.0011793633 -0.027815852 -0.065961614 -0.03638585 -0.016313283 0.0072366474 -0.012743316 -0.0036578353
0.06729071 0.022270082 -0.14078544 0.015534538 0.104665264 -0.08622657 0.0835996 -0.016064981
0.029210502 -0.029283296 0.0037377202 0.049242653 -0.14256701 -0.038041476 0.105134435 0.01868585
0.036424495 -0.012793489 -0.019429212 0.12798683 0.055707607 -0.01418731 0.08160339 0.12500603
0.060826987 0.007205732 0.0036558034 0.07798966 0.04588446 0.006832503 -0.041709743 -0.1070118
-0.13531736 -0.031742327 0.047847 -0.10322457 0.12777218 -0.0027267376 0.012478367 0.1025693
-0.09119685 0.06792272 -0.018831452 -0.054518484 -0.096040994 0.08328448 0.046049822 -0.12357132
-0.11729209 -0.018557178 0.009219416 -0.08822772 0.06560082 -0.09018531 -0.004576423 0.0968091
-0.0023247113 0.07519203 -0.118790604 0.07964639 0.00016588464 -0.0971673 -0.038974877 0.009823869
-0.08819363 0.087356254 0.060214236 0.02161768 0.06102939 -0.002998501 0.034837373 0.069465645
0.11827102 -0.061979685 0.007996914 0.014921795 0.012104406 0.016690772 -0.066434115 0.0255828
0.00065467926 0.04019164 0.11896439 -0.001767134 0.016473517 0.0699738 0.07492767 -0.02269999
-0.0015045671 0.12704606 -0.10508338 -0.0899139 -0.018645737 -0.009038803 0.021499969 0.031070026
0.006363115 0.022149201 -0.010209993 -0.046000697 -0.0758835 -0.10278657 -0.010377291 0.060265563
-0.009910058 0.058634497 0.10636693 0.09765848 0.08182128 0.011966924 0.0265294 0.006690036
0.087997556 -0.055168852 -0.06939382 -0.031869642 0.033614647 0.107249305 0.0056938813 0.0031200012
-0.13439737 0.02092957 -0.12273715 -0.13560249 0.058673155 0.108835325 0.056169134 -0.095982715
0.013192971 0.16753931 -0.049229812 0.1225403 -0.095800385 0.011171033 -0.064713776 0.03299032
0.09132376 0.08939886 -0.12005953 0.0006733354 -0.07180096 0.012710114 0.07557744 0.018231349
-0.004338829 0.1090842 0.08817791 0.016232569 0.13780682 0.0050365794 0.06214099 0.16497806
0.12785326 -0.11280244 -0.09569638 -0.017518485 0.11717108 -0.10567724 -0.0078159245 -1.9370054e-06
-0.0060015926 -0.089151815 0.012148184 -0.00978063 -0.098275684 -0.012538953 0.02623377 0.13131136
-0.07466717 0.09733395 -0.094919175 -0.005387003 0.03543147 -0.041843235 -0.0077880826 -0.010347171
-0.030027803 -0.107343964 0.046857964 -0.05017235 -0.021850774 -0.06686849 -0.057177585 -0.013594844
00000000: 2d22 823d 68da a83c 51b7 fa3d 9461 3c3d
00000010: f2c5 a63d f7d7 febd 9927 703c 0c5b 033d
00000020: 01fa 8b3b 1ca8 88bd 1e20 92bb 4808 0ebc
00000030: 88f1 503d 1b36 0b3c 2f1d 09bd 454c 07bc
00000040: ce86 f8bd 045a 41bb aa72 e8bc b701 c0bb
00000050: c0eb ca3d 2a80 2b3c 298d b43b 6d9b 93bd
00000060: a0f1 12bd d427 e3bc 5470 20bd 7319 843d
00000070: c63f 18bd 867e e33d 39d1 c63b ad1d ab3d
00000080: ba7a 9c3c a2c6 cabc 438c 063d 581a 083e
00000090: f0e5 fbbd 550f 7a3d 7691 643c df7d aebd
000000a0: 812c d53c c4d4 d73c 6d57 893c 2a6d 763d
000000b0: 7982 333c ca61 203c 7857 94bd 0153 b83c
000000c0: 8936 aa3d 22a3 293d 6fb4 bebd 66ac 973b
000000d0: 9918 83bc 4a29 e83a 72dd 01be 0ed7 eabd
000000e0: 7d7c f93c 5482 09bd 379a fdbc e151 77bd
000000f0: 357a 5ebd a929 50bd 10ad 7dbd be66 0f3d
00000100: de94 9a3a 12de e3bc e216 87bd 5409 15bd
00000110: 6fa3 85bc 6621 ed3b 57c9 50bc 4bb8 6fbb
00000120: b6cf 893d bf6f b63c 0f2a 10be 9384 7e3c
00000130: be5a d63d 8e97 b0bd 4436 ab3d b59a 83bc
00000140: dd4a ef3c 86e3 efbc 8af4 743b aab2 493d
00000150: 16fd 11be 61d1 1bbd b950 d73d 1113 993c
00000160: da31 153d c89b 51bc 032a 9fbc fb0e 033e
00000170: a92d 643d e471 68bc ae1f a73d 9501 003e
00000180: b825 793d 101e ec3b 3496 6f3b 0bb9 9f3d
00000190: 58f1 3b3d 30e3 df3b d6d7 2abd 0129 dbbd
000001a0: a290 0abe 3e04 02bd 37fb 433d 6767 d3bd
000001b0: b6d6 023e 11b3 32bb 1172 4c3c da0f d23d
000001c0: 6ac5 babd 111b 8b3d 6b44 9abc c64e 5fbd
000001d0: 24b1 c4bd 0e91 aa3d bd9e 3c3d f612 fdbd
000001e0: d636 f0bd 3905 98bc 090d 173c bcb0 b4bd
000001f0: b959 863d 13b3 b8bd d2f5 95bb d943 c63d
00000200: 2f5a 18bb 47fe 993d 7d48 f3bd a61d a33d
00000210: 52f1 2d39 a6ff c6bd 1fa4 1fbd 4bf4 203c
00000220: dd9e b4bd d6e7 b23d 34a3 763d 9017 b13c
00000230: f4f9 793d 8082 44bb a2b1 0e3d 0144 8e3d
00000240: 1438 f23d 69de 7dbd 7d05 033c 8b7a 743c
00000250: 8f51 463c 16bb 883c 9c0e 88bd 0593 d13c
00000260: c89e 2b3a fd9f 243d 9aa3 f33d 2d9f e7ba
00000270: 78f3 863c 6c4e 8f3d ae73 993d 54f5 b9bc
00000280: e534 c5ba 5d18 023e f535 d7bd c724 b8bd
00000290: f2be 98bc 7d17 14bc b420 b03c 9186 fe3c
000002a0: ad81 d03b 3e72 b53c d147 27bc 3a6b 3cbd
000002b0: cf68 9bbd c481 d2bd 8305 2abc 06d9 763d
000002c0: cc5d 22bc ba2a 703d e8d6 d93d 2b01 c83d
000002d0: ea91 a73d eb10 443c 2f54 d93c 1738 db3b
000002e0: 1038 b43d bcf8 61bd 591e 8ebd be89 02bd
000002f0: 83af 093d 86a5 db3d bd93 ba3b ef78 4c3b
00000300: 779f 09be 7d74 ab3c 9d5d fbbd 61db 0abe
00000310: 4353 703d 0ee5 de3d 9b11 663d 9692 c4bd
00000320: 5527 583c 6d8f 2b3e 33a5 49bd 69f6 fa3d
00000330: fe32 c4bd b506 373c a888 84bd dc20 073d
00000340: f407 bb3d c016 b73d c5e1 f5bd c682 303a
00000350: 620c 93bd 153e 503c 58c8 9a3d e959 953c
00000360: bc2c 8ebb 8967 df3d 9f96 b43d 2afa 843c
00000370: 3b1d 0d3e e409 a53b 8d87 7e3d 02f0 283e
00000380: f7eb 023e f704 e7bd 77fc c3bd ed82 8fbc
00000390: 64f7 ef3d 4f6d d8bd 5d0e 00bc 80fd 01b6
000003a0: 02a9 c4bb 3a95 b6bd 2d09 473c ef3e 20bc
000003b0: c344 c9bd 2e70 4dbc 34e8 d63c 7c76 063e
000003c0: 1aeb 98bd 0657 c73d fc64 c2bd 7585 b0bb
000003d0: 9720 113d d063 2bbd 2c33 ffbb 2e87 29bc
000003e0: defc f5bc 27d7 dbbd 23ee 3f3d 8681 4dbd
000003f0: 6500 b3bc 59f2 88bd 0b33 6abd e9bc 5ebc

temporal_attention.attention.in_proj_bias f4 [96]
0.017202634 0.01691192 -0.019500239 -0.020536592 0.018770022 0.018354245 0.019389769 -0.017845377
-0.0164 -0.017402157 0.00046466332 -0.017785892 -0.019671615 0.0045746923 0.019177157 0.001706854
-0.0008282069 0.0031502116 -0.0019173333 0.0008743876 0.00025410845 0.0040766364 0.0029029145 -0.0006348378
0.0013504786 2.1991349e-05 -0.0006793801 -0.0043745465 7.46397e-06 0.0007709143 -0.0020116325 -0.0022834581
2.375132e-08 1.127426e-08 -4.720536e-09 1.537643e-08 2.2431973e-08 -5.7036154e-09 -1.507609e-08 -1.5123849e-08
-1.2563754e-09 -5.4941536e-09 -9.222692e-09 2.2218891e-09 -4.497991e-08 4.3566972e-09 1.1225202e-08 2.7214e-09
1.264835e-08 9.6212894e-08 2.0955017e-07 -2.3558233e-07 1.1574842e-07 -3.3216185e-07 3.2521946e-08 -5.7489757e-08
-1.9397552e-07 -1.5833947e-08 7.98656e-08 1.274157e-07 1.514108e-07 6.9066374e-08 1.1508357e-07 7.999865e-08
-0.0031056379 0.0038183185 0.004265316 0.00022293755 0.0028946563 0.003594005 -0.0017327954 -0.0002441023
-0.001574253 0.00030589115 0.0026956017 -0.0018131936 0.002957138 -0.0019489955 0.0016038741 0.0044587078
-0.0026904333 -0.0016960112 -0.00057066634 -0.00033796008 0.0051586553 0.002562436 9.892433e-05 -0.0012687327
-0.0029411535 0.0021020258 0.0054414645 0.0024575072 -0.0038578361 0.00025567328 0.0038367363 -0.006669107
00000000: 8aec 8c3c de8a 8a3c f7be 9fbc 5b3c a8bc
00000010: 97c3 993c a45b 963c 4bd7 9e3c 7830 92bc
00000020: 4b59 86bc f88e 8ebc 0e9e f339 b8b3 91bc
00000030: 5e26 a1bc 4de7 953b 6a19 9d3c 84b8 df3a
00000040: 061c 59ba c873 4e3b 084f fbba 2937 653a
00000050: dc39 8539 4e95 853b d33e 3e3b 3e6b 26ba
00000060: 8b02 b13a 107a b837 6d18 32ba 5b58 8fbb
00000070: 0473 fa36 2f17 4a3a 98d5 03bb 12a6 15bb
00000080: b405 cc32 b8b0 4132 4632 a2b1 2115 8432
00000090: 6eb0 c032 88f9 c3b1 ac80 81b2 b2e9 81b2
000000a0: c8ac acb0 16c7 bcb1 d471 1eb2 e3af 1831
000000b0: ef2f 41b3 eab1 9531 f6d8 4032 6003 3b31
000000c0: 084c 5932 999d ce33 b600 6134 61f4 7cb4
000000d0: 5e91 f833 fa53 b2b4 42ae 0b33 a8ea 76b3
000000e0: 9647 50b4 3803 88b2 9482 ab33 c3cf 0834
000000f0: 7c93 2234 a451 9433 dd23 f733 b9cb ab33
00000100: f587 4bbb c13c 7a3b 10c4 8b3b 58c4 6939
00000110: 46b4 3d3b 6689 6b3b f71e e3ba b6f5 7fb9
00000120: 2a57 ceba 0460 a039 b1a8 303b aea8 edba
00000130: 8bcc 413b 7075 ffba 1639 d23a 5a1a 923b
00000140: fb51 30bb b14c deba c598 15ba 3c30 b1b9
00000150: f009 a93b 8bee 273b 9875 cf38 9b4b a6ba
00000160: 5ec0 40bb 24c2 093b 504e b23b 210e 213b
00000170: c0d3 7cbb e30b 8639 c171 7b3b 8688 dabb

temporal_attention.attention.out_proj.weight f4 [32, 32]
-0.13251118 -0.16055968 0.0903713 0.1726387 0.17515917 0.06496696 -0.16287567 -0.12519413
0.044175353 0.08004478 -0.02877569 0.08878436 -0.033377856 0.14175154 -0.15844652 -0.12540697
0.027937284 -0.081830226 -0.15022801 0.071135744 0.010203082 -0.10306165 -0.13339867 -0.08908417
-0.02685188 0.03394383 0.07602454 0.121933185 0.10954073 -0.1056941 -0.029526096 0.014994691
0.030164244 0.14588985 0.16521758 -0.116516404 0.022016041 -0.13845713 0.15183358 -0.17231156
0.086264275 -0.105988495 -0.09218176 -0.13318236 -0.040444043 0.131581 -0.15425469 0.09691125
-0.14060783 0.012348265 -0.139941 0.008146328 0.034072984 0.111879505 0.06961385 0.13363002
-0.08422641 0.17853743 -0.16188985 -0.11682038 -0.14330411 0.06455492 -0.15191486 0.060856268
-0.15834133 -0.06903277 0.0199288 0.13918512 0.024373448 -0.15274811 0.022458391 -0.095028475
0.1062269 0.05821554 0.10132896 -0.06309629 0.15655312 0.12001815 0.07357495 0.118113644
0.15977617 -0.076186515 0.07923801 -0.07027346 -0.15857704 -0.084511764 0.09419604 -0.08241154
-0.17997995 -0.15511253 -0.106705524 0.039603107 0.009726264 0.062255297 0.12948045 0.015758874
-0.09506382 -0.014590068 0.0643817 -0.15243195 0.18019867 0.114894375 0.13518128 -0.040307034
0.044928245 0.17301682 0.11412547 -0.017858127 0.092448466 0.08469523 0.16269039 0.14321215
0.010489244 0.14666308 0.048970483 -0.01720141 0.054147158 0.10717981 -0.01800418 0.18529545
-0.06515477 -0.010958963 0.109097116 0.16041918 0.05814938 -0.06825657 0.15487155 -0.123092584
0.015087103 0.044598073 -0.14721616 -0.11164956 -0.08923867 -0.12910989 0.08657265 -0.059507433
-0.16116521 0.06148275 0.022878706 0.0027476682 0.032910857 -0.034160696 -0.1759962 -0.108039595
0.09433628 0.017462224 0.00023810969 0.11168943 0.020648021 -0.07403067 0.08076543 0.10541643
-0.15598013 0.087421544 0.14172326 0.019875016 -0.0013362379 0.1285468 -0.05307154 0.098221906
0.056566395 0.12551986 -0.11309543 -0.10859041 0.065028764 0.03386531 -0.113126345 0.09563192
0.07324526 -0.049816806 -0.07090661 0.1031717 -0.05832913 0.0896186 -0.058917765 -0.06510696
-0.12410753 -0.035215825 0.15845299 -0.058820777 -0.034480385 0.051611908 0.12216076 0.021774104
0.16730423 -0.012104309 0.10303287 0.0835779 0.10355664 -0.022179037 -0.12737106 -0.016877944
0.0053993585 0.048583105 -0.014649372 -0.03698358 -0.11873585 0.04946169 -0.11616645 0.050150704
-0.11434336 0.1210725 0.067775875 0.17063272 -0.0050325007 -0.042871863 -0.1782362 0.11449687
-0.07815489 0.059009142 0.10433602 0.17935695 -0.10268134 -0.0128182 0.10904751 -0.034010153
-0.03671898 0.080172494 -0.1096585 -0.094128326 0.16284044 -0.00377578 -0.090353385 0.13571216
-0.1571155 -0.12389217 0.09719682 0.03828242 -0.015259275 -0.13378632 -0.07835411 0.10632889
-0.15702973 0.11341555 -0.061111882 -0.17099607 0.13166258 0.17276436 0.049563438 -0.1088125
-0.016467214 -0.16381533 -0.07841819 -0.16031389 -0.11242582 0.009567569 -0.14951527 -0.16398796
-0.011678709 0.11322946 0.095391564 -0.002997345 -0.1328696 0.028058162 0.037869886 0.16168949
00000000: 03b1 07be c269 24be 9714 b93d 33c8 303e
00000010: ed5c 333e 660d 853d e1c8 26be e432 00be
00000020: 37f1 343d 85ee a33d ffba ebbc 93d4 b53d
00000030: 38b7 08bd 5127 113e ce3f 22be af6a 00be
00000040: bbdc e43c 9b96 a7bd 5fd5 19be 9eaf 913d
00000050: d42a 273c fd11 d3bd a999 08be c371 b6bd
00000060: 79f8 dbbc af08 0b3d c1b2 9b3d 1bb8 f93d
00000070: e456 e03d 2676 d8bd b6e0 f1bc 4bac 753c
00000080: 011b f73c 2664 153e cc2e 293e 27a0 eebd
00000090: fc5a b43c b5c7 0dbe 437a 1b3e 7172 30be
000000a0: 53ab b03d 7f10 d9bd cac9 bcbd f560 08be
000000b0: a7a8 25bd 2bbd 063e f1f4 1dbe 6879 c63d
000000c0: 80fb 0fbe 6150 4a3c b24c 0fbe 2d78 053c
000000d0: 1d90 0b3d 1521 e53d b591 8e3d 4fd6 083e
000000e0: e57e acbd 84d2 363e 74c6 25be 863f efbd
000000f0: 50be 12be 5f35 843d 928f 1bbe 6c44 793d
00000100: 3b24 22be 0e61 8dbd b941 a33c 8b86 0e3e
00000110: d3aa c73c 006a 1cbe a9fa b73c 4a9e c2bd
00000120: 7d8d d93d 6b73 6e3d 8f85 cf3d a138 81bd
00000130: 764f 203e 13cc f53d 77ae 963d 91e5 f13d
00000140: 5d9c 233e ad07 9cbd 8a47 a23d 88eb 8fbd
00000150: 0562 22be 8114 adbd dae9 c03d 62c7 a8bd
00000160: aa4c 38be d2d5 1ebe 6d88 dabd de36 223d
00000170: e85a 1f3c 69ff 7e3d 8696 043e c118 813c
00000180: d2b0 c2bd 2e0b 6fbc 8dda 833d 1f17 1cbe
00000190: 0086 383e be4d eb3d f66c 0a3e fd18 25bd
000001a0: ae06 383d 522b 313e 9dba e93d 354b 92bc
000001b0: 9f55 bd3d b174 ad3d 4f98 263e 35a6 123e
000001c0: 14db 2b3c d92e 163e 4695 483d f9e9 8cbc
000001d0: 69c9 5d3d 1781 db3d 817d 93bc 17be 3d3e
000001e0: dd6f 85bd 398d 33bc 4f6e df3d ed44 243e
000001f0: 0b2e 6e3d 1aca 8bbd a696 1e3e f717 fcbd
00000200: e52f 773c 78ac 363d d5bf 16be 86a8 e4bd
00000210: c4c2 b6bd 6235 04be 004d b13d 11be 73bd
00000220: 7e08 25be 56d5 7b3d 206c bb3c 3912 343b
00000230: 89cd 063d 16ec 0bbd 5938 34be dd43 ddbd
00000240: 6133 c13d f00c 8f3c 15ad 7939 6ebd e43d
00000250: 0a26 a93c 649d 97bd 5968 a53d 92e4 d73d
00000260: 41b9 1fbe 110a b33d e71f 113e eed0 a23c
00000270: b424 afba c6a1 033e 8b61 59bd 9128 c93d
00000280: 2ab2 673d 4788 003e 949e e7bd a664 debd
00000290: cd2d 853d 5ab6 0a3d c9ae e7bd abda c33d
000002a0: 9c01 963d b50c 4cbd 7c37 91bd af4b d33d
000002b0: 87ea 6ebd f589 b73d c153 71bd cc56 85bd
000002c0: 172c febd 783e 10bd 8041 223e 0eee 70bd
000002d0: 4e3b 0dbd 0267 533d 6c2f fa3d 9b5f b23c
000002e0: cd51 2b3e 2751 46bc e602 d33d e42a ab3d
000002f0: 8115 d43d d0b0 b5bc 8f6d 02be 9d43 8abc
00000300: 1aed b03b 14ff 463d eb03 70bc 187c 17bd
00000310: c82b f3bd 5798 4a3d ade8 edbd d36a 4d3d
00000320: da2c eabd dcf4 f73d 14ce 8a3d 58ba 2e3e
00000330: ade7 a4bb 689a 2fbd 8d83 36be 567d ea3d
00000340: ac0f a0bd 92b3 713d 20ae d53d 59a9 373e
00000350: 984a d2bd 6d03 52bc 4d54 df3d 3b4e 0bbd
00000360: a466 16bd 7a31 a43d a394 e0bd 5ac6 c0bd
00000370: a5bf 263e 1473 77bb 320b b9bd 21f8 0a3e
00000380: e3e2 20be 2ebb fdbd 200f c73d 07ce 1c3d
00000390: 0a02 7abc 48ff 08be 1f78 a0bd f6c2 d93d
000003a0: 67cc 20be 6946 e83d 7450 7abd 9819 2fbe
000003b0: 8ed2 063e 24e9 303e 0803 4b3d 17d9 debd
000003c0: 40e6 86bc 35bf 27be b799 a0bd 5329 24be
000003d0: 823f e6bd 4bc1 1c3c 881a 19be 76ec 27be
000003e0: 0e58 3fbc d9e4 e73d a75c c33d 1b6f 44bb
000003f0: f80e 08be 3bda e53c 741d 1b3d ee91 253e

temporal_attention.attention.out_proj.bias f4 [32]
0.0018450689 0.0015189593 -0.0055512665 0.011034846 -0.0010520689 -0.0020947345 -0.0057476927 0.002373728
0.0020221844 0.013228704 -0.0013697837 0.0012875182 0.0052716355 -0.00080820563 -0.005948841 -0.0009801488
0.0007874568 0.0027779315 9.020082e-05 0.0021992587 -0.0024993771 -0.0025667592 0.00076723093 -0.00057676353
-0.01571081 0.0017145347 -0.0017643047 0.0006033625 -0.0031971112 0.0036412445 -0.0023895025 0.0011871775
00000000: 3dd6 f13a d117 c73a 66e7 b5bb 80cb 343c
00000010: 93e5 89ba d047 09bb 2457 bcbb 8c90 1b3b
00000020: a086 043b 35bd 583c 508a b3ba f1c1 a83a
00000030: afbd ac3b c3dd 53ba 7fee c2bb 5678 80ba
00000040: 556d 4e3a f50d 363b 322a bd38 7021 103b
00000050: 97cc 23bb 1337 28bb ff1f 493a f231 17ba
00000060: f5b3 80bc 3dba e03a 3e40 e7ba f92a 1e3a
00000070: a086 51bb f2a1 6e3b 3399 1cbb 119b 9b3a

temporal_attention.norm.weight f4 [32]
1.0018587 0.9944092 0.9950414 0.9979618 0.99272346 1.0006845 0.9912974 1.0024308
1.0112002 1.0060167 0.9914111 1.0212061 0.99144036 0.99562657 0.9983201 1.0014609
0.99989665 1.0022999 0.98888874 0.99400604 0.9926549 0.9982443 1.0049655 0.9920119
1.0051576 1.0042216 1.0013545 0.9758409 0.9962889 1.0089533 1.0003736 1.00531
00000000: e83c 803f 9a91 7e3f 08bb 7e3f 6d7a 7f3f
00000010: 2023 7e3f 6e16 803f abc5 7d3f a74f 803f
00000020: 026f 813f 28c5 803f 1ecd 7d3f e2b6 823f
00000030: 09cf 7d3f 62e1 7e3f e891 7f3f df2f 803f
00000040: 3af9 7f3f 5d4b 803f d027 7d3f 2e77 7e3f
00000050: a21e 7e3f f08c 7f3f b6a2 803f 7ef4 7d3f
00000060: 01a9 803f 558a 803f 622c 803f b6d0 793f
00000070: ca0c 7f3f 6225 813f 3e0c 803f 00ae 803f

temporal_attention.norm.bias f4 [32]
-0.0013103714 -0.0012427502 -0.011446638 -0.004188881 -0.00045479462 -0.0010800259 -0.0041562314 0.00085882767
-0.01256265 -0.0029662966 -0.0004668153 0.0006143902 0.0022518085 0.0004158981 -0.004569978 -0.0031273104
-0.0044973074 0.00091103755 -0.0047978647 0.0021670351 0.0010287579 -0.00036500124 0.0011749627 0.0030358208
-0.008709864 0.0024954502 -0.0010141114 -0.010165507 -0.0034570275 0.0038319903 -0.0010077375 0.0046356083
00000000: c5c0 abba c7e3 a2ba ae8a 3bbc e142 89bb
00000010: 8071 eeb9 a88f 8dba ff30 88bb f322 613a
00000020: 93d3 4dbc 3366 42bb e4be f4b9 070f 213a
00000030: 1493 133b e60c da39 c1bf 95bb 90f3 4cbb
00000040: 265e 93bb b2d2 6e3a 6837 9dbb d104 0e3b
00000050: 63d7 863a a35d bfb9 3501 9a3a 9ff4 463b
00000060: d1b3 0ebc b58a 233b efeb 84ba 3a8d 26bc
00000070: 4c8f 62bb 2122 7b3b 0f16 84ba 4de6 973b

polarization_head.0.weight f4 [16, 32]
-0.012850865 -0.14664806 0.05833529 0.025238091 0.04524499 -0.087095514 -0.07336348 0.072539836
-0.0296921 0.0067544985 -0.15455142 0.1299599 0.11293637 -0.106983505 0.14115204 0.03435644
-0.0255474 0.145519 0.03128287 -0.16833903 0.130766 -0.096373245 -0.018420082 -0.06281458
0.008480169 -0.036752976 -0.15817611 -0.14297439 0.011891232 0.02616582 0.0662295 0.07632134
-0.013952383 0.12170898 0.08607251 0.09912056 0.092560835 -0.021863736 -0.0016687299 0.07101575
-0.12971194 0.020661335 0.08153008 -0.002073933 0.0022918293 -0.11553536 -0.14814238 -0.06687883
-0.03614238 0.008150008 -0.029032003 0.08031121 0.017352909 -0.08581736 -6.531367e-06 -0.008909182
-0.026994016 0.006507993 -0.09430273 -0.04470327 -0.032000825 0.009224545 0.12428874 -0.021131998
-0.08118723 0.12900977 0.12593086 -0.07560261 -0.04096521 -0.17294009 -0.14791524 0.0720251
0.0410707 0.12206087 -0.09798469 0.18926562 0.12953374 -0.13714269 -0.006885628 -0.014457902
0.07717865 -0.038397238 0.07742573 -0.1239483 -0.0882079 -0.17507686 -0.15122063 -0.11743179
-0.034725912 0.13946877 -0.11810222 0.0009576999 -0.1577614 0.15051836 -0.15323111 -0.015663672
-0.10327555 0.008616159 -0.05895525 0.09526848 -0.033465594 -0.11572075 -0.10435948 0.02006236
0.003403905 -0.118500985 0.05973248 -0.04053006 0.012879661 -0.052651055 0.13092117 -0.0081056
0.13389926 -0.11626109 0.008716019 -0.121026255 -0.0024877829 -0.0020552264 -0.00469726 -0.033102367
0.02796863 -0.13451521 -0.1241633 -0.07245856 -0.0044186064 -0.04327901 0.017373879 0.12149447
4.573776e-06 0.06465939 -0.08199368 -0.007983059 0.14536037 -0.004457615 0.043092623 0.09534077
-0.050889514 -0.019365897 -0.07912012 -0.10101411 -0.122485526 -0.05505623 -0.015621822 0.048724025
-0.058795057 -0.05639838 -0.05802086 0.039846115 -0.03151435 -0.0796266 0.107630566 -0.048733674
0.0029104513 0.01731186 0.05935763 -0.034538243 0.0029635653 0.08180731 -0.0159376 -0.005047065
0.034603544 0.073842846 0.13436677 0.1273124 0.032772996 -0.037648 -0.08344781 0.16589788
0.057306383 0.16602504 0.025892729 -0.0130227795 0.15883972 -0.11035391 -0.08652081 0.093694426
-0.0149436835 0.15757014 -0.060926482 -0.02130082 -0.16114384 -0.0047102943 -0.06897482 -0.11346675
0.097272985 -0.14668337 0.008695299 -0.15837367 0.027194455 0.032330707 -0.13254008 -0.122452125
0.13339724 0.05008226 -0.0724255 0.08081027 -0.031391736 -0.1751743 -0.059585076 0.11746659
0.07795358 0.09869256 0.0029451724 0.12205966 -0.13720304 -0.1164584 -0.16920005 0.117897846
-0.11255363 0.06688499 -0.1443863 0.053963736 0.10397806 0.16573179 -0.042031158 -0.051254194
-0.15891123 0.033415414 -0.05050811 0.10772799 0.118342444 -0.055638414 -0.08155825 0.019937193
0.07472254 -0.0010567468 -0.08577895 -0.1484657 0.10193365 -0.119464256 -0.08397469 0.04331445
-0.08531041 -0.15173553 -0.17289446 0.1864289 0.05802543 0.15282081 -0.18000153 -0.1048844
0.028335376 0.15633696 -0.060864583 0.11343763 -0.090269856 0.12162203 -0.033030067 0.17952329
-0.15881734 0.08996413 -0.17569233 -0.053561028 -0.11480856 0.16523744 -0.1522831 0.087734595
00000000: 6f8c 52bc e92a 16be fcf0 6e3d 1dc0 ce3c
00000010: d052 393d 225f b2bd 983f 96bd c48f 943d
00000020: d93c f3bc d754 dd3b ba42 1ebe 3514 053e
00000030: 2f4b e73d 2b1a dbbd 298a 103e 57b9 0c3d
00000040: c848 d1bc ef02 153e 7722 003d 1161 2cbe
00000050: 86e7 053e 565f c5bd b6e5 96bc eea4 80bd
00000060: 68f0 0a3c 4a8a 16bd ebf8 21be e167 12be
00000070: 71d3 423c b459 d63c 55a3 873d 5d4e 9c3d
00000080: 8998 64bc 8f42 f93d c946 b03d b8ff ca3d
00000090: 8990 bd3d 941b b3bc 49b9 daba b570 913d
000000a0: 35d3 04be f641 a93c 3ef9 a63d d2ea 07bb
000000b0: 8432 163b ce9d ecbd a3b2 17be c5f7 88bd
000000c0: 080a 14bd 9c87 053c 86d4 edbc 347a a43d
000000d0: b027 8e3c 03c1 afbd 0428 dbb6 d1f7 11bc
000000e0: 8e22 ddbc 0141 d53b ca21 c1bd c71a 37bd
000000f0: 4c13 03bd 8c22 173c 188b fe3d 031d adbc
00000100: 7e45 a6bd 231b 043e 05f4 003e 8bd5 9abd
00000110: 23cb 27bd 3517 31be 1877 17be e581 933d
00000120: c039 283d 0dfb f93d 32ac c8bd d9ce 413e
00000130: 7ea4 043e 226f 0cbe d6a0 e1bb d6e0 6cbc
00000140: d70f 9e3d 6c46 1dbd 6291 9e3d 9bd8 fdbd
00000150: 58a6 b4bd 5947 33be 95d9 1abe 1480 f0bd
00000160: c23c 0ebd e7d0 0e3e 94df f1bd 270e 7b3a
00000170: 348c 21be 7c21 1a3e 9ee8 1cbe 1a51 80bc
00000180: 2282 d3bd ca2a 0d3c 0f7b 71bd 1f1c c33d
00000190: 3813 09bd 00ff ecbd 6cba d5bd d259 a43c
000001a0: 0d14 5f3b a5b0 f2bd 0caa 743d d902 26bd
000001b0: 3705 533c a2a8 57bd 3310 063e 5acd 04bc
000001c0: e31c 093e 4b1a eebd a2cd 0e3c 9ddc f7bd
000001d0: 120a 23bb fab0 06bb 79eb 99bb 5996 07bd
000001e0: 781e e53c 5bbe 09be 5449 febd 2765 94bd
000001f0: f5c9 90bb 5545 31bd aa53 8e3c 18d2 f83d
00000200: 7078 9936 246c 843d 4dec a7bd 60cb 02bc
00000210: 59d9 143e 2f11 92bb e481 303d 0642 c33d
00000220: 8671 50bd 3ba5 9ebc bb09 a2bd 7ce0 cebd
00000230: b1d9 fabd a482 61bd acf2 7fbc d892 473d
00000240: 16d3 70bd fd01 67bd 48a7 6dbd ae35 233d
00000250: 3115 01bd 4513 a3bd 6a6d dc3d f69c 47bd
00000260: 45bd 3e3b 9ad1 8d3c fc20 733d f977 0dbd
00000270: 6038 423b 978a a73d 928f 82bc da61 a5bb
00000280: 72bc 0d3d eb3a 973d 7197 093e 2f5e 023e
00000290: fa3c 063d ca34 1abd afe6 aabd 22e1 293e
000002a0: 19ba 6a3d 7802 2a3e fd1c d43c 7f5d 55bc
000002b0: e1a6 223e 3b01 e2bd d331 b1bd dde2 bf3d
000002c0: 5ad6 74bc 115a 213e 0c8e 79bd 0f7f aebc
000002d0: e402 25be d058 9abb ac42 8dbd 4161 e8bd
000002e0: 0f37 c73d 2a34 16be ba76 0e3c b52c 22be
000002f0: e8c6 de3c 346d 043d 96b8 07be 2ec8 fabd
00000300: 4999 083e 0e23 4d3d d253 94bd db7f a53d
00000310: 9f94 00bd e460 33be 7b0f 74bd 5392 f03d
00000320: 20a6 9f3d 531f ca3d cb03 413b 6afa f93d
00000330: f47e 0cbe be81 eebd c742 2dbe 6d74 f13d
00000340: 8482 e6bd fffa 883d 01da 13be 1409 5d3d
00000350: 73f2 d43d 98b5 293e dd28 2cbd ebef 51bd
00000360: a0b9 22be 9ade 083d 98e1 4ebd 7ea0 dc3d
00000370: 865d f23d 1be5 63bd 0308 a7bd 5353 a33c
00000380: 2208 993d 8a82 8aba e0ac afbd 6407 18be
00000390: 97c2 d03d ada9 f4bd ecfa abbd 7e6a 313d
000003a0: 39b7 aebd 8f60 1bbe 3f0b 31be 38e7 3e3e
000003b0: 13ac 6d3d 0f7d 1c3e 5252 38be a2cd d6bd
000003c0: 971f e83c cc16 203e 244d 79bd fd51 e83d
000003d0: 67df b8bd f914 f93d 894a 07bd f4d4 373e
000003e0: 03a1 22be 1d3f b83d b1e8 33be cf62 5bbd
000003f0: c020 ebbd 0134 293e 1af0 1bbe 32ae b33d

polarization_head.0.bias f4 [16]
0.16040704 -0.12220731 -0.12604952 -0.13887937 0.13272113 0.1262562 0.11474211 -0.057534933
0.01309438 -0.06005452 -0.038900636 0.087963484 0.006173045 0.025056489 -0.08680078 -0.11309992
00000000: be41 243e d347 fabd 2013 01be 6536 0ebe
00000010: 0ce8 073e 4e49 013e e9fd ea3d c0a9 6bbd
00000020: cf89 563c bafb 75bd 4656 1fbd 3326 b43d
00000030: 4147 ca3b 4443 cd3c 9bc4 b1bd eea0 e7bd

polarization_head.3.weight f4 [1, 16]
0.075227916 -0.20684928 0.20223008 -0.02407958 0.15661563 -0.026292438 0.05157564 0.11021721
0.02893716 0.08852486 0.2578219 0.07364284 0.18699107 -0.116204835 0.20329571 -0.20546065
00000000: 1811 9a3d 4cd0 53be 6715 4f3e 8a42 c5bc
00000010: d95f 203e 3d63 d7bc fa40 533d 90b9 e13d
00000020: 9f0d ed3c 864c b53d 3b01 843e 0fd2 963d
00000030: 967a 3f3e cdfc edbd c02c 503e 4764 52be
