results/congress_gat_model.pt (torch, 62533 bytes, 32 tensors)

gat1.W f4 [4, 3, 32]
-0.0024656304 0.15565106 0.09330056 0.21906425 -0.18924733 0.10145873 -0.08194517 0.17073712
0.09175245 -0.31147668 0.10533107 0.022213046 0.06060098 0.1318294 0.028777527 0.025060115
0.12800565 -0.016854849 -0.10084512 0.010661493 -0.11286636 -0.04471357 -0.056501564 0.09562385
0.021280598 -0.07784178 -0.08440657 -0.1678618 0.0102051925 -0.174459 0.18045112 -0.08727289
0.13189812 0.025845142 -0.009181767 0.20165189 -0.044999257 0.1780371 0.00244096 -0.041936055
0.07198611 -0.10244648 0.008656697 0.15813574 0.057350516 0.01964821 0.0758096 0.091953434
0.042448867 -0.082362734 -0.1885066 -0.09115877 -0.13458806 0.09499372 0.07976314 0.07492766
0.08882162 0.051881254 0.043052774 -0.16365448 0.02794244 -0.08652586 0.07980047 -0.118586905
-0.07262801 -0.043667756 0.23261724 -0.050680444 -0.11413719 -0.027765924 0.15219158 0.0756404
0.10528214 -0.19753772 -0.19661306 -0.115685046 -0.15988864 0.08625737 0.016407792 0.11170494
-0.091594286 -0.15212432 0.064933136 -0.08237393 0.04648179 -0.05233763 0.086151905 -0.1388365
0.028317228 0.051877756 -0.0013255598 -0.041957732 0.038470786 0.09834254 -0.08085957 0.00080128177
0.05079428 -0.018631782 -0.08287122 -0.2929896 -0.1931738 0.1734788 0.015806101 -0.1181674
-0.039158907 -0.30460545 -0.075720295 -0.04133336 -0.15815857 -0.24494891 0.18388863 0.08657481
0.006059738 -0.24673614 -0.051825657 0.03697578 -0.023893587 -0.15677613 -0.077981494 -0.040088315
0.1669592 -0.020749198 0.10292591 -0.06285905 -0.09623558 -0.03692596 -0.15583405 -0.2135999
-0.032868423 -0.02737531 0.094815366 -0.16221242 -0.17661938 0.11777255 -0.050608683 -0.0785397
-0.15513234 -0.27761108 0.09429142 -0.008081576 0.020030322 -0.10322842 0.08182827 -0.08883609
-0.066815585 -0.0022700464 0.15654314 0.32134908 0.21124072 -0.13434052 0.009040522 -0.030405331
0.03294519 -0.06049502 0.18807186 -0.061841313 0.18533672 -0.001706956 -0.13196094 0.11620423
0.14717884 0.074586354 -0.014007762 -0.12593131 0.021086898 0.057367455 -0.033621512 0.13866143
-0.009088798 -0.16036461 -0.056824666 0.03128961 0.08347998 -0.09724389 -0.060228173 -0.0029497894
-0.1252527 0.004449461 0.16758691 -0.106717385 -0.021271914 0.07095176 0.024109894 -0.035309557
0.23007257 0.121015176 0.12095496 -0.0120012285 -0.06756929 0.081589244 -0.01828186 -0.19579957
0.09701473 0.090797044 0.22498456 0.14371629 0.06665088 0.045906827 0.021216717 0.0035711417
-0.17309988 -0.11616485 0.33969277 0.29312885 -0.0486055 -0.3903186 -0.15994325 -0.19573084
-0.024038197 -0.03062721 0.3857614 0.28944573 -0.34197366 -0.17696162 -0.06391157 0.15056154
0.07126065 -0.13844332 0.2669543 -0.10340994 -0.024377814 0.09362562 -0.00040350022 0.011454852
-0.022557475 0.0629643 0.26529303 0.10210844 -0.12239085 -0.06997142 -0.050339803 0.008902914
0.07064274 0.17065248 0.20838295 0.054835 -0.12442526 -0.2365538 -0.250682 -0.3073142
0.06489193 -0.17465277 0.06703541 0.035623685 -0.06316276 -0.074543945 -0.15767428 0.13410155
0.09467607 0.022952802 0.002231868 -0.14689447 -0.07445547 -0.035942834 0.036854196 -0.07634239
00000000: 6a96 21bb fe62 1f3e 5d14 bf3d 6152 603e
00000010: 0dca 41be 98c9 cf3d dfd2 a7bd b6d5 2e3e
00000020: b5e8 bb3d df79 9fbe d1b7 d73d 22f8 b53c
00000030: bc38 783d 49fe 063e d9be eb3c df4a cd3c
00000040: ea13 033e 2e13 8abc e387 cebd 8bad 2e3c
00000050: 7a26 e7bd 9425 37bd 2f6e 67bd 70d6 c33d
00000060: a654 ae3c 836b 9fbd 5add acbd f7e3 2bbe
00000070: ae33 273c 61a5 32be 2ec8 383e 21bc b2bd
00000080: 4d10 073e 31b9 d33c 1f6f 16bc d57d 4e3e
00000090: 2451 38bd 5c4f 363e 83f8 1f3b 24c5 2bbd
000000a0: 746d 933d 76cf d1bd d2d4 0d3c 56ee 213e
000000b0: 60e8 6a3d 48f5 a03c 1042 9b3d 1552 bc3d
000000c0: ddde 2d3d cbad a8bd e007 41be 73b1 babd
000000d0: 74d1 09be 118c c23d db5a a33d ac73 993d
000000e0: 1ce8 b53d 7081 543d 1b58 303d 0a95 27be
000000f0: 8be7 e43c 7834 b1bd 6e6e a33d b1dd f2bd
00000100: febd 94bd f6dc 32bd 3733 6e3e 4c96 4fbd
00000110: c2c0 e9bd 5d75 e3bc 1cd8 1b3e 5be9 9a3d
00000120: 2a9e d73d 5447 4abe ef54 49be 48ec ecbd
00000130: d9b9 23be b4a7 b03d a269 863c 8fc5 e43d
00000140: c995 bbbd 7ac6 1bbe aafb 843d aab3 a8bd
00000150: b063 3e3d fc5f 56bd 6970 b03d 282b 0ebe
00000160: 88f9 e73c c57d 543d 68be adba dfdb 2bbd
00000170: 8b93 1d3d d067 c93d b499 a5bd 1c0d 523a
00000180: aa0d 503d aea1 98bc 63b8 a9bd bc02 96be
00000190: 5acf 45be 6da4 313e cc7b 813c c001 f2bd
000001a0: 1765 20bd 3ff5 9bbe 3e13 9bbd 2b4d 29bd
000001b0: 52f4 21be e3d3 7abe 4d4d 3c3e 224e b13d
000001c0: c490 c63b 66a8 7cbe 2447 54bd ea73 173d
000001d0: 7cbc c3bc ec89 20be c3b4 9fbd a533 24bd
000001e0: 5af7 2a3e 39fa a9bc d2ca d23d 3fbc 80bd
000001f0: 2917 c5bd ad3f 17bd f692 1fbe efb9 5abe
00000200: 0aa1 06bd 3042 e0bc 8f2e c23d 031b 26be
00000210: b6db 34be bc32 f13d 0d4b 4fbd 6cd9 a0bd
00000220: 03db 1ebe 0a23 8ebe dc1b c13d 9668 04bc
00000230: a116 a43c 6c69 d3bd 9495 a73d b2ef b5bd
00000240: 9cd6 88bd 0fc5 14bb d84c 203e de87 a43e
00000250: 7d4f 583e 9090 09be b31e 143c 9a14 f9bc
00000260: 89f1 063d a0c9 77bd e995 403e 514d 7dbd
00000270: e9c8 3d3e f0bb dfba c520 07be 7cfc ed3d
00000280: 0db6 163e bbc0 983d d080 65bc 23f4 00be
00000290: 6ebe ac3c 23fa 6a3d b6b6 09bd 43fd 0d3e
000002a0: 2fe9 14bc 9f36 24be fbc0 68bd 8929 003d
000002b0: 8df7 aa3d ce27 c7bd d1b1 76bd 4151 41bb
000002c0: 3e42 00be c9cc 913b e79b 2b3e a58e dabd
000002d0: 7042 aebc 284f 913d 1d82 c53c c1a0 10bd
000002e0: 2598 6b3e ced6 f73d 3cb7 f73d cda0 44bc
000002f0: c561 8abd 4318 a73d d7c3 95bc af7f 48be
00000300: a9af c63d cdf3 b93d 5a62 663e 5d2a 133e
00000310: 4280 883d cc08 3c3d aece ad3c d109 6a3b
00000320: 1841 31be d6e7 edbd 36ec ad3e fc14 963e
00000330: 9016 47bd d7d7 c7be 2ac8 23be aa6d 48be
00000340: c1eb c4bc eae5 fabc 8582 c53e 3b32 943e
00000350: 2c17 afbe 6d35 35be 12e4 82bd ce2c 1a3e
00000360: 1bf1 913d 16c4 0dbe 3cae 883e 97c8 d3bd
00000370: fbb3 c7bc cabe bf3d e28c d3b9 22ad 3b3c
00000380: 74ca b8bc 6df3 803d 7dd4 873e 3b1e d13d
00000390: 0ea8 fabd 2d4d 8fbd 1c31 4ebd 87dd 113c
000003a0: 24ad 903d 86bf 2e3e 5762 553e aa9a 603d
000003b0: acd2 febd 293b 72be 6459 80be 4958 9dbe
000003c0: 0fe6 843d 2dd8 32be dc49 893d 24ea 113d
000003d0: 7a5b 81bd 7faa 98bd 5e75 21be eb51 093e
000003e0: 87e5 c13d 8407 bc3c 8844 123b 816b 16be
000003f0: 1c7c 98bd cb38 13bd 6df4 163d 6659 9cbd

gat1.a_src f4 [4, 32, 1]
0.0019432204 0.14300357 -0.38649035 -0.26605392 0.30250373 -0.13285424 -0.11199535 -0.23711845
0.19512364 0.2827086 0.14693041 -0.16521166 -0.26652846 -0.03978231 0.03962316 -0.2078074
-0.104405195 0.30794656 0.026424065 0.049875446 -0.055997226 -0.28999802 -0.30065095 -0.15899244
-0.14675693 0.21728067 -0.009997685 -0.055565525 0.29067832 0.17095862 0.11086353 -0.11001417
-0.2899255 -0.07062626 -0.026065433 -0.043065544 -0.06323653 -0.13212651 -0.13977769 0.027624594
0.11752827 0.1797237 0.12232344 -0.13879727 -0.04249017 0.2335774 0.11722863 -0.1687524
0.053170223 0.25187844 -0.24847203 0.41289473 0.090579815 -0.12086144 0.051169228 0.11841865
-0.32351264 0.025696447 -0.12454568 0.23121521 0.50898254 -0.123301536 -0.05456379 0.4638287
0.20765464 -0.2973455 -0.13002445 -0.4062415 -0.32936797 -0.031306896 0.039466873 0.09122501
0.13282573 0.35183346 -0.22806826 -0.38750067 0.04854831 0.20339383 0.22413403 -0.16496186
0.11460153 -0.19927298 -0.41546768 -0.44512242 0.46969566 0.46239898 0.34198442 0.13516113
0.027042678 0.036422372 -0.35166568 0.22110732 -0.10393223 -0.27143288 -0.07747351 0.04146298
0.13393112 -0.15297246 -0.1544395 0.030307058 -0.19723494 -0.19734778 0.105439596 0.0046379035
0.38434285 0.3804245 0.16813402 0.04098499 0.052621868 0.007029948 -0.0129734585 0.061768476
0.21904856 0.20136225 -0.091648564 -0.19054343 -0.013528861 -0.205816 0.0029151225 0.18257935
0.37844366 0.10577668 -0.35966218 -0.13522172 -0.16587631 -0.12391388 0.0011228849 -0.35222337
00000000: a8b3 fe3a 876f 123e 10e2 c5be 3838 88be
00000010: c5e1 9a3e f10a 08be d15d e5bd 2ecf 72be
00000020: 7ece 473e 2ebf 903e ed74 163e 3f2d 29be
00000030: 6b76 88be c7f2 22bd e54b 223d 77cb 54be
00000040: 64d2 d5bd 2cab 9d3e 4877 d83c 324a 4c3d
00000050: 595d 65bd 9f7a 94be ecee 99be eace 22be
00000060: 7347 16be d37e 5e3e 55cd 23bc ad98 63bd
00000070: cad3 943e c70f 2f3e 6b0c e33d 1c4f e1bd
00000080: 1d71 94be 80a4 90bd 2d87 d5bc 7f65 30bd
00000090: 2782 81bd 2c4c 07be e221 0fbe f94c e23c
000000a0: a9b2 f03d 7d09 383e b684 fa3d df20 0ebe
000000b0: 2c0a 2ebd ea2e 6f3e 9015 f03d 6ecd 2cbe
000000c0: 05c9 593d 36f6 803e 746f 7ebe f066 d33e
000000d0: e981 b93d 3486 f7bd d396 513d 7a85 f23d
000000e0: 73a3 a5be 5b81 d23c ce11 ffbd aec3 6c3e
000000f0: ae4c 023f 8485 fcbd 487e 5fbd f57a ed3e
00000100: 6ba3 543e ab3d 98be 2125 05be e3fe cfbe
00000110: eba2 a8be a93b 00bd 04a8 213d 2ed4 ba3d
00000120: 7803 083e 8423 b43e ba8a 69be 7d66 c6be
00000130: 98da 463d 7946 503e 6483 653e c3eb 28be
00000140: 35b4 ea3d 370e 4cbe 2eb8 d4be 16e7 e3be
00000150: f37b f03e 8fbf ec3e 9518 af3e ae67 0a3e
00000160: 9b88 dd3c a02f 153d 860d b4be f569 623e
00000170: 6cda d4bd 40f9 8abe 6eaa 9ebd 16d5 293d
00000180: 3d25 093e d0a4 1cbe 6325 1ebe 8246 f83c
00000190: f5f7 49be 8915 4abe b7f0 d73d 8ef9 973b
000001a0: 96c8 c43e 00c7 c23e 532b 2c3e e0df 273d
000001b0: 078a 573d 7a5b e63b a18e 54bc f100 7d3d
000001c0: 444e 603e e831 4e3e 3eb2 bbbd d11d 43be
000001d0: 28a8 5dbc 6ec1 52be a40b 3f3b 15f6 3a3e
000001e0: 5ec3 c13e 72a1 d83d a425 b8be 9077 0abe
000001f0: 7bdb 29be 8fc6 fdbd c42d 933a 9f56 b4be

gat1.a_dst f4 [4, 32, 1]
-0.038666707 -0.34854007 -0.31546825 -0.4236687 0.4202471 -0.39099666 0.16876125 -0.12606506
-0.17806071 0.38930517 -0.020670317 0.22185154 0.13604286 -0.4001191 -0.026654491 -0.13417527
-0.05524083 0.20421408 0.1907228 0.04523107 0.04846888 0.1873119 0.12783574 -0.079859525
-0.2493073 0.09441575 -0.13736199 0.44210705 -0.30140597 0.09254774 -0.18837146 0.20140679
0.24768984 0.0870866 0.17165802 0.47883222 0.48574716 -0.3249946 -0.002435105 0.26836115
0.099073105 0.37751508 -0.019633448 -0.028075792 0.25902417 0.24454984 -0.075841255 0.14942005
0.27516156 0.46742094 -0.05718842 -0.37785766 -0.28454676 0.0027257435 -0.038589753 -0.065844595
-0.4741975 -0.17091195 -0.38148743 -0.1712834 -0.19092886 0.17171617 0.48543334 0.021306548
-0.20855454 0.00073738414 -0.4658041 -0.41383114 0.18115908 -0.12780996 0.00872948 0.14252128
0.24463528 -0.0014629739 -0.4740168 -0.27453548 0.25470772 0.38140064 0.37215066 0.5772123
-0.13961512 0.12619294 -0.43898785 -0.5195188 0.21543922 -0.071536325 0.3684308 -0.18366869
-0.3932612 0.31892788 -0.5540362 0.11108355 0.11829953 -0.15190953 -0.123541616 -0.0032888413
0.36180642 0.43333495 0.14244162 -0.17990056 -0.1144037 0.33111823 0.0043087727 0.10499153
0.0047710864 -0.35795987 -0.21556266 0.24991906 -0.004106246 0.03284276 -0.24079777 -0.2519357
-0.076459564 -0.23221059 0.050297957 0.21932346 -0.41426978 0.07305801 -0.288161 -0.19780616
0.1228224 0.3677738 -0.051739506 -0.2060843 -0.23623136 -0.28550002 -0.2039986 -0.018965643
00000000: fb60 1ebd d873 b2be 0e85 a1be 1beb d8be
00000010: a12a d73e b730 c8be c0cf 2c3e 3317 01be
00000020: 8c55 36be 0253 c73e cc54 a9bc 0d2d 633e
00000030: d24e 0b3e 69dc ccbe 855a dabc 3e65 09be
00000040: 3544 62bd 7f1d 513e d64c 433e 3744 393d
00000050: 4e87 463d b1ce 3f3e 5fe7 023e 648d a3bd
00000060: 6a4a 7fbe 0b5d c13d 9fa8 0cbe db5b e23e
00000070: e251 9abe ab89 bd3d 73e4 40be 953d 4e3e
00000080: 68a2 7d3e 765a b23d 1fc7 2f3e 7f29 f53e
00000090: dab3 f83e b165 a6be 4896 1fbb a266 893e
000000a0: d7e6 ca3d a849 c13e 53d6 a0bc 34ff e5bc
000000b0: d19e 843e 466b 7a3e a952 9bbd 9201 193e
000000c0: fae1 8c3e cc51 ef3e 683e 6abd 8f76 c1be
000000d0: 1db0 91be 63a2 323b 4a10 1ebd 88d9 86bd
000000e0: 04ca f2be 8b03 2fbe 5252 c3be ea64 2fbe
000000f0: db82 43be 5dd6 2f3e b88a f83e 128b ae3c
00000100: 528f 55be 034d 413a e07d eebe ade1 d3be
00000110: c481 393e 9de0 02be 1806 0f3c 19f1 113e
00000120: ac81 7a3e 42c1 bfba 54b2 f2be ea8f 8cbe
00000130: 0d69 823e f246 c33e 888a be3e 2fc4 133f
00000140: 44f7 0ebe b938 013e 04c3 e0be 2fff 04bf
00000150: 199c 5c3e a381 92bd f6a2 bc3e a513 3cbe
00000160: 8859 c9be 844a a33e 51d5 0dbf c67f e33d
00000170: 0647 f23d 2c8e 1bbe 6303 fdbd 9a89 57bb
00000180: b13e b93e 14de dd3e 37dc 113e da37 38be
00000190: 7d4c eabd 5488 a93e 9b30 8d3b cd05 d73d
000001a0: c656 9c3b 8446 b7be 75bc 5cbe c8ea 7f3e
000001b0: b08d 86bb 2186 063d b193 76be b7fd 80be
000001c0: d596 9cbd 9dc8 6dbe 3b05 4e3d 5496 603e
000001d0: 2b1b d4be 709f 953d d789 93be b38d 4abe
000001e0: 4f8a fb3d d94c bc3e ceec 53bd c307 53be
000001f0: a2e6 71be 0f2d 92be 02e5 50be d65d 9bbc

gat2.W f4 [1, 128, 32]
0.08952097 -0.009530867 0.043252002 0.0011735545 -0.0064166468 -0.006150328 0.04302281 -0.015882766
-0.027381055 0.0022662696 -0.015201616 -0.0063035367 0.019255934 0.018906793 -0.021959573 0.07149907
-0.031381533 -0.0016905805 0.031669993 -0.012592856 -0.0048664715 0.021521265 -0.0040443703 -0.021631878
0.03822268 0.019223398 0.031461295 -0.034033757 0.027912375 -0.06670191 -0.007915052 0.029334513
0.11416885 0.048282765 -0.0066940547 0.028968155 0.00079293596 0.009338124 0.013414491 -0.009327654
0.011553682 0.046247248 -0.07650421 0.024364008 -0.015043315 0.06964252 0.036825534 0.028367214
-0.07977414 -0.0040843016 0.040904246 0.047239967 0.032695517 0.057032626 0.008888161 -0.002117447
0.04777123 0.061379384 0.01208678 0.0024348213 0.035474833 -0.04524785 -0.024577418 -0.019331342
0.04126831 -0.004839784 0.019703966 0.0070412 -0.025963493 0.03318689 0.026319498 0.0057263416
-0.0060289567 -0.01318923 0.006996681 0.056903627 0.018000357 -0.021489196 0.036440555 0.010532539
-0.03055453 0.029194472 0.034075342 0.05764286 0.014206916 0.02718482 0.057589248 -0.05857764
-0.0050329966 -0.0029485067 0.047014836 -0.06292122 -0.036210734 -0.00062921643 0.018640667 0.04190544
-0.041776065 -0.005468695 0.022063307 0.06717608 0.037912663 0.0049738754 0.027622433 0.063325755
-0.03268276 0.00994372 0.021674432 -0.013148126 -0.035201214 0.027374344 0.019549994 0.030139014
-0.016046582 -0.006747519 0.039773513 0.0054980237 0.02154681 0.016972411 0.01637718 0.009325341
-0.028268157 0.0006200569 0.0051233564 -0.052726258 -0.041344106 -0.0038280697 0.017692847 -0.043258313
-0.03850604 0.02423126 -0.012809255 -0.019408725 -0.064973295 -0.029339036 0.006591494 -0.03295967
0.01283427 0.0022164274 -0.0051897895 -0.011351014 0.034072045 0.0069143395 0.007983598 -0.027614878
-0.037777215 -0.06639118 -0.008811748 -0.027265029 -0.021190431 0.00662056 -0.036412176 0.044012934
0.024428314 -0.017450139 0.0053579896 -0.0071682264 -0.022210276 4.5322144e-05 -0.04961682 0.07075077
-0.012939535 -0.011132917 -0.053745575 -0.0016171414 -0.026814932 -0.06447183 0.025380831 0.015948677
0.06970267 -0.032796092 -0.033405866 -0.034064926 0.043305773 0.0063375393 0.03268874 -0.031161882
0.018863063 0.002336316 -0.052345507 0.010535366 -0.0056801317 0.006001808 0.04661584 0.0023111466
-0.016557338 -0.019293604 -0.0018321803 0.0034349957 -0.030792402 -0.024317103 0.01019152 -0.02365102
-0.03740923 0.016750798 -0.0059277746 0.05338703 -0.019643068 0.016927047 0.02957294 0.0040225126
-0.029592114 -0.023280768 -0.024022546 0.0024305307 -0.043344505 -0.020234367 0.038117114 -0.0023870901
0.009441632 0.10305052 0.04386658 0.08183269 -0.0074144932 0.031422064 -0.06052815 -0.0028583773
0.05316159 0.0320559 0.0750271 0.0062074023 0.04920059 -0.018684585 0.056454603 -0.03842712
-0.01807247 0.04828647 0.0472923 0.045706645 0.033047147 -0.022290036 0.0038058134 0.055915162
-0.01699924 0.018409478 -0.0020402991 -0.0017638374 -0.010392704 -0.01647777 0.034072727 0.029025877
0.019560192 0.03663945 0.030304106 0.05684041 0.036186855 0.050545245 0.027098406 -0.028161353
-0.02628274 0.0005822105 0.019590328 -0.03670406 0.014370465 -0.010349091 0.040266685 -0.021567637
00000000: c556 b73d 5b27 1cbc 0329 313d f4d1 993a
00000010: bc42 d2bb b188 c9bb b038 303d 931c 82bc
00000020: 3c4e e0bc b285 143b 3310 79bc e68d cebb
00000030: 9fbe 9d3c 6be2 9a3c 90e4 b3bc 1b6e 923d
00000040: ec89 00bd 7896 ddba 65b8 013d 4452 4ebc
00000050: ec76 9fbb 5d4d b03c a386 84bb 5635 b1bc
00000060: 638f 1c3d 637a 9d3c 8fdd 003d fb66 0bbd
00000070: 7ea8 e43c 039b 88bd 22ae 01bc ef4e f03c
00000080: 5cd1 e93d 26c4 453d cd59 dbbb a04e ed3c
00000090: 08dd 4f3a eefe 183c 74c8 5b3c 04d3 18bc
000000a0: a84b 3d3c c16d 3d3d 3dae 9cbd 0797 c73c
000000b0: 3c78 76bc bda0 8e3d 5fd6 163d 5c62 e83c
000000c0: a060 a3bd 9bd5 85bb 368b 273d b27e 413d
000000d0: bceb 053d 0b9b 693d a69f 113c dec4 0abb
000000e0: c4ab 433d f368 7b3d a107 463c 8691 1f3b
000000f0: 0f4e 113d cf55 39bd 9556 c9bc c35c 9ebc
00000100: f608 293d 0d97 9ebb 366a a13c deb9 e63b
00000110: 64b1 d4bc faee 073d fd9b d73c 09a4 bb3b
00000120: 8e8e c5bb a417 58bc 6a44 e53b c713 693d
00000130: 7c75 933c 1c0a b0bc b142 153d ac90 2c3c
00000140: 7e4d fabc 3f29 ef3c 9692 0b3d eb1a 6c3d
00000150: 20c4 683c b3b2 de3c b4e2 6b3d 1cef 6fbd
00000160: d6eb a4bb bc3b 41bb a192 403d d7dc 80bd
00000170: b551 14bd 00f2 24ba 50b4 983c 0aa5 2b3d
00000180: 611d 2bbd bd32 b3bb 1cbe b43c 9d93 893d
00000190: 4f4a 1b3d e4fb a23b 7148 e23c efb0 813d
000001a0: 5cde 05bd fcea 223c 948e b13c 3d6b 57bc
000001b0: 262f 10bd 2940 e03c 4f27 a03c 18e6 f63c
000001c0: 1f74 83bc 4b1a ddbb 8de9 223d c428 b43b
000001d0: f082 b03c ba09 8b3c 7029 863c 51c9 183c
000001e0: 9f92 e7bc 508b 223a d4e1 a73b 7df7 57bd
000001f0: 7058 29bd 5ae0 7abb 97f0 903c a12f 31bd
00000200: 82b8 1dbd a380 c63c e9dd 51bc 0cff 9ebc
00000210: b810 85bd 6b58 f0bc 76fd d73b b800 07bd
00000220: d446 523c 7b41 113b 1c0f aabb 9af9 39bc
00000230: 218f 0b3d af91 e23b a3cd 023c 9938 e2bc
00000240: 48bc 1abd 19f8 87bd 265f 10bc e95a dfbc
00000250: 8e97 adbc 48f1 d83b ef24 15bd e846 343d
00000260: e31d c83c 98f3 8ebc 1392 af3b 71e3 eabb
00000270: 53f2 b5bc 4818 3e38 023b 4bbd c8e5 903d
00000280: 5800 54bc d766 36bc 5224 5cbd 43f6 d3ba
00000290: fdaa dbbc cf09 84bd 76eb cf3c cda6 823c
000002a0: 46c0 8e3d 3255 06bd 97d4 08bd aa87 0bbd
000002b0: 6561 313d 22ab cf3b a1e4 053d 3447 ffbc
000002c0: b686 9a3c e11c 193b 3e68 56bd 879c 2c3c
000002d0: 6620 babb d1aa c43b 40f0 3e3d 9b76 173b
000002e0: 41a3 87bc 9f0d 9ebc c525 f0ba aa1d 613b
000002f0: 5940 fcbc a934 c7bc 55fa 263c c9bf c1bc
00000300: 6c3a 19bd f838 893c c73d c2bb 5cac 5a3d
00000310: 80ea a0bc 97aa 8a3c f342 f23c 48cf 833b
00000320: 296b f2bc 4fb7 bebc eeca c4bc 8a49 1f3b
00000330: 028a 31bd 8bc2 a5bc b120 1c3d ba70 1cbb
00000340: 13b1 1a3c 270c d33d 71ad 333d e697 a73d
00000350: 47f5 f2bb 6cb4 003d 5eec 77bd 9d53 3bbb
00000360: f8bf 593d 0c4d 033d cfa7 993d 7767 cb3b
00000370: 8f86 493d 6a10 99bc f13c 673d c165 1dbd
00000380: b70c 94bc 09c8 453d 92b5 413d e436 3b3d
00000390: 725c 073d 9899 b6bc f46a 793b 4c07 653d
000003a0: fd41 8bbc 79cf 963c 8ab6 05bb 9030 e7ba
000003b0: 2946 2abc 63fc 86bc d88f 0b3d adc7 ed3c
000003c0: b23c a03c 3f13 163d 5140 f83c 7dd1 683d
000003d0: ab38 143d 8808 4f3d 7afd dd3c a3b2 e6bc
000003e0: e74e d7bc 7c9f 183a e57b a03c ff56 16bd
000003f0: 1972 6b3c 3c8f 29bc aeee 243d 9dae b0bc

gat2.a_src f4 [1, 32, 1]
0.39161393 -0.0023867665 0.12655361 -0.39427826 0.37793657 -0.13743898 0.13085864 -0.29934973
-0.1940325 -0.25598434 -0.46857482 -0.016894534 -0.062634125 0.3717138 0.06396558 0.32897198
-0.14556862 -0.056223035 0.33175844 -0.3137199 -0.111855224 0.32920274 0.028539872 -0.15104754
-0.004139863 -0.15450697 0.07363691 -0.21110104 0.043851353 -0.22775726 -0.18997684 -0.11362074
00000000: 9f81 c83e 4c6b 1cbb 4597 013e d7de c9be
00000010: e780 c13e cebc 0cbe cfff 053e 5e44 99be
00000020: 75b0 46be 6110 83be 0ae9 efbe 6866 8abc
00000030: 5246 80bd 4551 be3e 6300 833d 046f a83e
00000040: f10f 15be 204a 66bd 3edc a93e e59f a0be
00000050: 5a14 e5bd 438d a83e 73cc e93c 35ac 1abe
00000060: b0a7 87bb 1337 1ebe f3ce 963d df2a 58be
00000070: 7a9d 333d 3339 69be 4a89 42be feb1 e8bd

gat2.a_dst f4 [1, 32, 1]
0.02378153 0.17108193 -0.3536907 -0.18680215 -0.3444942 0.112932 0.20371594 -0.29318565
0.08619026 0.018306969 -0.11027496 0.053539135 0.18332888 0.28546593 0.089032345 -0.056380097
-0.14701177 -0.05125737 0.027770724 -0.02780176 0.23071545 -0.35103765 0.01275644 -0.09460446
-0.00020829734 0.3358753 0.018648842 -0.056012254 -0.04313928 -0.28465313 -0.31135345 0.06176838
00000000: 7cd1 c23c 1a30 2f3e f316 b5be 1049 3fbe
00000010: 8b61 b0be e448 e73d e99a 503e 6e1c 96be
00000020: 8584 b03d 7ff8 953c d7d7 e1bd da4b 5b3d
00000030: 91ba 3b3e 9728 923e 9756 b63d d1ee 66bd
00000040: 418a 16be 3ff3 51bd 6e7f e33c 84c0 e3bc
00000050: ac40 6c3e 35bb b3be 6300 513c fcbf c1bd
00000060: 646a 5ab9 d9f7 ab3e 75c5 983c 1b6d 65bd
00000070: d0b2 30bd 0ebe 91be b869 9fbe d700 7d3d

bn1.weight f4 [128]
0.81331587 0.9271746 0.9288862 0.8953091 0.87941915 0.8441793 0.92910886 0.9582232
0.8852209 0.9093358 0.9629357 0.93835956 0.93418413 0.913749 0.8852827 0.935085
0.895491 0.933797 0.87372744 0.9683095 0.87356126 0.76556736 0.8129957 0.8917292
0.87224907 0.83943504 0.8071503 0.948629 0.9493172 0.77131957 0.8683479 0.8435729
0.9224629 0.86367524 0.8856875 0.9593963 0.97067976 0.92611986 0.873578 0.8949502
0.89652514 0.884169 0.9652746 0.8953878 0.840533 0.93028885 0.95629376 0.8496192
0.9325376 0.88598776 0.9170963 0.9059647 0.90960747 0.9135247 0.8754451 0.8695726
0.9261032 0.8911536 0.87531483 0.9005143 0.82352585 0.8715925 0.8834655 0.9046475
0.9071888 0.9315463 0.91818607 0.9474596 0.865447 0.78872037 0.8646753 0.88021886
0.8725286 0.9192189 0.85895497 0.96752614 0.8367065 0.8933458 0.8447829 0.9132449
0.90764743 0.97007567 0.93503 0.89255 0.9013673 0.95320034 0.94356287 0.96246946
0.82693636 0.8814669 0.9857002 0.93375075 0.86369824 0.88154453 0.98001456 0.93904924
0.90485746 0.9717978 0.9059112 0.9060675 0.8522107 0.81537366 0.8829069 0.8069182
0.9574388 0.9461771 0.96760124 0.87631613 0.91199976 0.91269946 0.9466012 0.8874624
0.91933227 0.84559053 0.86668676 0.9229306 0.8979053 0.8596825 0.9725607 0.8418814
0.8421967 0.8623674 0.9099056 0.9734413 0.94748086 0.86143935 0.9088015 0.87440526
00000000: 7835 503f 515b 6d3f 7ccb 6d3f fa32 653f
00000010: 9d21 613f 221c 583f 14da 6d3f 1e4e 753f
00000020: d69d 623f 3bca 683f f482 763f 5538 703f
00000030: b126 6f3f 74eb 693f e3a1 623f bb61 6f3f
00000040: e63e 653f 520d 6f3f 9aac 5f3f 22e3 773f
00000050: b6a1 5f3f 39fc 433f 7c20 503f 5d48 643f
00000060: b74b 5f3f 37e5 563f 67a1 4e3f 5ad9 723f
00000070: 7406 733f 3375 453f 0c4c 5e3f 65f4 573f
00000080: 8726 6c3f d219 5d3f 6abc 623f ff9a 753f
00000090: 787e 783f 3116 6d3f cfa2 5f3f 751b 653f
000000a0: ac82 653f e658 623f 3c1c 773f 2338 653f
000000b0: 2c2d 573f 6927 6e3f abcf 743f a580 593f
000000c0: c9ba 6e3f 18d0 623f d3c6 6a3f 4ded 673f
000000d0: 09dc 683f c1dc 693f 2c1d 603f 4f9c 5e3f
000000e0: 1915 6d3f a422 643f a214 603f 1b88 663f
000000f0: 97d2 523f b020 5f3f cc2a 623f fb96 673f
00000100: 863d 683f d179 6e3f 3e0e 6b3f b68c 723f
00000110: ef8d 5d3f 94e9 493f 5c5b 5d3f 0656 613f
00000120: 095e 5f3f ee51 6b3f 79e4 5b3f cbaf 773f
00000130: 6632 563f 4fb2 643f b143 583f 6bca 693f
00000140: 955b 683f e156 783f 205e 6f3f 287e 643f
00000150: 02c0 663f f004 743f 568d 713f 6664 763f
00000160: 1ab2 533f d1a7 613f d956 7c3f 4a0a 6f3f
00000170: 541b 5d3f e7ac 613f 3ce2 7a3f 8865 703f
00000180: bda4 673f bec7 783f cce9 673f 0af4 673f
00000190: 7b2a 5a3f 54bc 503f 3006 623f 3192 4e3f
000001a0: b61a 753f aa38 723f b7b4 773f 4156 603f
000001b0: d178 693f aca6 693f 7554 723f bc30 633f
000001c0: 5c59 6b3f 9f78 583f 2fdf 5d3f 2e45 6c3f
000001d0: 1fdd 653f 2714 5c3f bdf9 783f 8a85 573f
000001e0: 349a 573f 1cc4 5c3f 93ef 683f 7333 793f
000001f0: 1b8e 723f 4a87 5c3f 37a7 683f 06d9 5f3f

bn1.bias f4 [128]
-0.236121 -0.20212857 -0.12671442 0.14240175 -0.074061 0.099642076 0.051245175 0.08083474
-0.19514935 0.21627557 0.16685762 -0.16948938 -0.039328657 -0.0013120186 0.055838145 -0.24680905
-0.17958225 0.031479552 -0.23653553 0.21675554 -0.08060113 0.15310927 -0.22751117 0.098531835
0.162353 0.06413683 -0.006315742 -0.01876489 0.11145461 -0.061753813 -0.09054374 0.0979392
-0.07438748 -0.007082465 -0.029006165 0.19882661 0.19054165 -0.22441854 0.1162403 0.16100182
-0.2572166 0.16601385 0.116285555 -0.103635095 0.1871974 -0.09514332 0.16685943 -0.1629792
-0.1152942 0.14092672 -0.27853066 -0.20234597 -0.14903483 0.1903459 0.13645723 0.17778865
-0.26056153 -0.24470747 -0.18430091 0.21071523 0.08032542 0.044947777 -0.133924 0.12833476
-0.22087729 -0.10831103 -0.119568795 -0.2194132 -0.26948 0.14824344 -0.20692351 0.19613019
-0.17454377 -0.030684477 0.114433594 -0.15954284 0.1102942 -0.036678057 0.23105447 0.23233944
-0.08118869 0.16272712 0.111846216 -0.1562828 0.21036279 0.2341325 0.18703687 -0.016839271
0.08004647 -0.08834913 -0.24593563 0.2387138 0.20047809 -0.112547405 0.22123069 -0.1983494
-0.07524803 -0.20495202 0.10552751 0.04776123 -0.13862588 0.081633754 0.21543944 -0.021784302
-0.097651854 0.2214488 0.12450634 0.26327115 0.083986156 0.12587695 0.18788594 -0.10011411
0.19742174 -0.112013794 0.02072216 -0.03653686 0.11013305 -0.07792547 -0.16949524 0.0035602855
0.06943905 -0.22154795 -0.14665692 0.11618997 -0.24093881 0.0040290803 0.0039234553 -0.1241442
00000000: b4c9 71be cbfa 4ebe 6dc1 01be c4d1 113e
00000010: 4bad 97bd 2511 cc3d 76e6 513d af8c a53d
00000020: 3bd5 47be 5877 5d3e b9dc 2a3e a08e 2dbe
00000030: 1617 21bd 0af8 abba 8ab6 643d 83bb 7cbe
00000040: 69e4 37be b4f0 003d 5f36 72be 2af5 5d3e
00000050: 3512 a5bd adc8 1c3e b0f8 68be 0fcb c93d
00000060: dd3f 263e 2c5a 833d 49f4 cebb d4b8 99bc
00000070: 5142 e43d 91f1 7cbd ff6e b9bd 5994 c83d
00000080: 7758 98bd 0614 e8bb 569e edbc 3499 4b3e
00000090: 5a1d 433e f9cd 65be 650f ee3d a9dd 243e
000000a0: e5b1 83be 89ff 293e 1f27 ee3d a33e d4bd
000000b0: adb0 3f3e 80da c2bd 33dd 2a3e 05e4 26be
000000c0: 5e1f ecbd 184f 103e 929b 8ebe c833 4fbe
000000d0: 969c 18be 09ea 423e 72bb 0b3e 3a0e 363e
000000e0: 5268 85be 9894 7abe 61b9 3cbe bcc5 573e
000000f0: a781 a43d 291b 383d 6023 09be 306a 033e
00000100: a82d 62be 2cd2 ddbd 7ce0 f4bd dbad 60be
00000110: 48f9 89be 21cd 173e c2e3 53be 5ad6 483e
00000120: 9abb 32be 035e fbbc 295c ea3d 335f 23be
00000130: ede1 e13d bb3b 16bd 8b99 6c3e 64ea 6d3e
00000140: 4246 a6bd f0a1 263e a10f e53d 9908 20be
00000150: 5869 573e 6ec0 6f3e 9886 3f3e 83f2 89bc
00000160: 67ef a33d 63f0 b4bd 8dd6 7bbe 6471 743e
00000170: 214a 4d3e 417f e6bd 4c8a 623e 1b1c 4bbe
00000180: a41b 9abd f1de 51be cf1e d83d 48a1 433d
00000190: f1f3 0dbe 992f a73d 289c 5c3e fe74 b2bc
000001a0: b2fd c7bd 79c3 623e 2efd fe3d 7acb 863e
000001b0: ef00 ac3d e3e5 003e 2c65 403e a008 cdbd
000001c0: ed28 4a3e 7d67 e5bd 85c1 a93c ada7 15bd
000001d0: 708d e13d 6497 9fbd 2990 2dbe ae53 693b
000001e0: 1036 8e3d 77dd 62be 3b2d 16be 02f5 ed3d
000001f0: aab8 76be 6006 843b 5490 803b 503f febd

bn1.running_mean f4 [128]
-0.035673052 -0.016456472 0.11738266 -0.016821733 -0.053866822 -0.010691083 0.07216489 0.043386497
0.054206923 -0.08409353 -0.08820226 -0.05460492 -0.07307368 0.046680085 0.009344196 0.055427816
-0.04059267 -0.06951542 0.029502075 -0.038333673 0.020049999 -0.02634551 0.040366504 -0.06317307
0.014164066 0.022027036 -0.0029936472 -0.021781309 0.01930519 0.04335489 -0.033334635 -0.0012035379
0.074401915 0.036386795 -0.010134069 -0.051805113 0.010094627 0.031039495 -0.014908159 0.065205984
-0.0023916897 -0.062366035 -0.029844109 0.013864526 0.03636212 -0.0429781 -0.024687685 0.0024889116
-0.0565066 -0.001542468 0.07724836 -0.05510676 -0.014991457 0.03338429 0.009740191 -0.017081944
0.11647224 0.059617583 0.05861501 -0.0056252377 -0.036788248 0.038948666 -0.008669643 -0.08789565
0.042266868 -0.07512779 0.034516543 0.049838543 0.06467302 -0.038616337 0.038719166 -0.053846978
0.02604879 0.06997081 -0.001221862 0.0042030634 -0.0032493286 -0.050070763 0.032472316 -0.049281072
0.060701385 0.043706935 0.09960092 -0.008561193 -0.05628732 -0.0039735707 0.051281705 -0.08470074
-0.0029030724 -0.03715825 0.026277194 -0.02352134 -0.0011844849 -0.04441009 -0.07703832 0.07644948
0.09189281 0.09256685 -0.058001433 0.03600536 0.08549871 0.057203025 -0.038356934 0.04010935
-0.07547181 -0.09188757 -0.12526874 0.045301497 0.020241002 0.027005095 0.045177303 -0.08155609
-0.092302665 -0.059660103 0.085274234 0.093777426 -0.07740911 0.015961554 -0.072575375 -0.049352325
-0.0064917915 0.07862274 0.10008052 -0.09611584 0.045042377 -0.07049805 0.03247522 0.08377649
00000000: e81d 12bd b9cf 86bc 5266 f03d bbcd 89bc
00000010: 75a3 5cbd a729 2fbc 30cb 933d 0ab6 313d
00000020: 1408 5e3d 3b39 acbd 63a3 b4bd 69a9 5fbd
00000030: a7a7 95bd 9e33 3f3d 6618 193c 4708 633d
00000040: 8044 26bd 1a5e 8ebd 56ae f13c c503 1dbd
00000050: e53f a43c 8ad2 d7bc 5957 253d e260 81bd
00000060: 6610 683c 0b72 b43c 1131 44bb b76e b2bc
00000070: eb25 9e3c e694 313d e689 08bd 08c0 9dba
00000080: 0860 983d 520a 153d 5e09 26bc 9931 54bd
00000090: ef63 253c 8a46 fe3c 5a41 74bc b78a 853d
000000a0: e5bd 1cbb 8773 7fbd a27b f4bc 0928 633c
000000b0: 72f0 143d ce09 30bd d43d cabc 021d 233b
000000c0: 7773 67bd a32c caba 6334 9e3d a0b7 61bd
000000d0: ba9e 75bc f7bd 083d 5295 1f3c 6fef 8bbc
000000e0: ff88 ee3d 9131 743d 4b16 703d ea53 b8bb
000000f0: 46af 16bd a388 1f3d 1e0b 0ebc a202 b4bd
00000100: 0620 2d3d 99dc 99bd 3861 0d3d 8023 4c3d
00000110: 4a73 843d 2a2c 1ebd fd97 1e3d a68e 5cbd
00000120: 4664 d53c db4c 8f3d e326 a0ba dab9 893b
00000130: b0f2 54bb 0017 4dbd b101 053d f3da 49bd
00000140: 04a2 783d 0b06 333d 91fb cb3d 3f44 0cbc
00000150: 888d 66bd ba34 82bb c40c 523d 9577 adbd
00000160: 7941 3ebb 4033 18bd 4543 d73c d3af c0bc
00000170: b840 9bba 5be7 35bd 44c6 9dbd 8c91 9c3d
00000180: 4c32 bc3d b093 bd3d e992 6dbd 5b7a 133d
00000190: f319 af3d b84d 6a3d 291c 1dbd b449 243d
000001a0: f790 9abd 8d2f bcbd 7346 00be 108e 393d
000001b0: 75d0 a53c ca39 dd3c d60b 393d e106 a7bd
000001c0: 2e09 bdbd 275e 74bd 42a4 ae3d 610e c03d
000001d0: ab88 9ebd cec1 823c 66a2 94bd aa25 4abd
000001e0: 18b9 d4bb f604 a13d 04f7 cc3d 62d8 c4bd
000001f0: 5b7e 383d 4861 90bd bc04 053d 0293 ab3d

bn1.running_var f4 [128]
0.0005385983 0.0015869993 0.017350668 0.005015065 0.012770515 0.0013554236 0.0011411102 0.008465193
0.0068046246 0.03346358 0.0015372816 0.0008390868 0.0014543063 0.007369448 0.00054549857 0.0038625083
0.00012766114 0.004921536 0.0005131419 0.0012254723 0.0009640474 0.0010023447 0.00041891728 0.00029402948
0.00064166257 2.6364409e-05 0.0008365888 0.007583625 0.0004865815 0.00085212546 0.0013618651 0.0015314724
0.006268376 0.0005076757 0.00087658374 0.02561367 0.005586506 0.009178988 0.0001387929 6.531863e-05
0.00087386963 0.03336005 0.0019358372 1.36296685e-05 0.0005314781 0.01716408 0.002355979 0.0006296073
0.0026968382 0.0078028766 0.0038561334 0.00010755774 3.0256671e-05 0.0014925182 0.00034113083 0.0009973765
0.025862549 0.0015323553 0.01036152 0.0010530349 0.0024552953 0.00041700824 0.0054027634 0.019348573
0.0051825484 0.00077677815 0.018999288 0.011657647 0.0049704113 0.0006484114 0.0014117925 0.0021223773
0.0011562533 0.0014460753 0.019097378 0.012879381 0.0012022314 0.045770593 0.0033979483 0.022457335
0.0027901158 0.00010435556 0.053854547 0.009730779 0.033869043 0.0061363024 4.831527e-05 8.1941835e-05
0.0011475116 0.0067646373 0.014319658 0.0057359315 0.0003413469 8.986467e-05 0.0043882052 0.004239293
0.008028071 0.0069074305 0.0016330922 0.0010138706 0.0018846064 0.0006773444 0.00015327329 0.0006844754
0.011018521 0.0142529365 0.01964307 0.0017253493 3.6124962e-05 3.945501e-05 0.0009316135 0.00616389
0.01756141 0.0021196336 0.0037486942 0.0125064 0.007854984 0.0009799805 0.00028761133 0.00031625893
0.0043791644 0.0058453456 0.020156814 0.006100983 0.005209439 0.00012389082 0.00024000087 0.010684001
00000000: b830 0d3a dc02 d03a fd22 8e3c 6a55 a43b
00000010: 6c3b 513c 78a8 b13a 4e91 953a 98b1 0a3c
00000020: 54f9 de3b 1b11 093d 9c7e c93a 29f6 5b3a
00000030: 6c9e be3a 697b f13b caff 0e3a 2322 7d3b
00000040: c7dc 0539 d644 a13b 5f84 063a 07a0 a03a
00000050: 20b8 7c3a 1b61 833a 20a2 db39 f827 9a39
00000060: 3f35 283a 2329 dd37 864e 5b3a 0f80 f83b
00000070: dd1b ff39 2c61 5f3a 9c80 b23a b0bb c83a
00000080: f366 cd3b 8a15 053a 8aca 653a c2d3 d13c
00000090: 020f b73b 7763 163c ef88 1139 acfb 8838
000000a0: 6614 653a 8ca4 083d ebbb fd3a fbaa 6437
000000b0: e452 0b3a af9b 8c3c c566 1a3b 3b0c 253a
000000c0: 70bd 303b 46af ff3b 2fb7 7c3b 9f90 e138
000000d0: b5cf fd37 9aa0 c33a ced9 b239 67ba 823a
000000e0: b2dd d33c 50d9 c83a 5dc3 293c fd05 8a3a
000000f0: 05e9 203b e6a1 da39 aa09 b13b e680 9e3c
00000100: 5ed2 a93b b3a0 4b3a 65a4 9b3c b7ff 3e3c
00000110: d5de a23b 27fa 293a e50b b93a 9517 0b3b
00000120: 6c8d 973a 3c8a bd3a 1b72 9c3c 0a04 533c
00000130: 3194 9d3a f279 3b3d 1db0 5e3b 72f8 b73c
00000140: 60da 363b 77d9 da38 9696 5c3d d86d 1f3c
00000150: 44ba 0a3d 0913 c93b 20a6 4a38 30d8 ab38
00000160: 1a68 963a e4a9 dd3b 009d 6a3c 7bf4 bb3b
00000170: cef6 b239 ba75 bc38 efca 8f3b c4e9 8a3b
00000180: 2c88 033c ba57 e23b 7b0d d63a dae3 843a
00000190: e604 f73a d08f 313a fcb7 2039 5e6e 333a
000001a0: 0787 343c 2685 693c 81ea a03c 1e25 e23a
000001b0: e284 1738 7f7c 2538 8637 743a 75fa c93b
000001c0: f2dc 8f3c 8de9 0a3b a7ac 753b a5e7 4c3c
000001d0: 31b2 003c b072 803a 8aca 9639 8ecf a539
000001e0: 187f 8f3b 508a bf3b e71f a53c c1ea c73b
000001f0: f1b3 aa3b b0e8 0139 bea8 7b39 f30b 2f3c

bn2.weight f4 [32]
1.0560422 1.1628329 1.1290529 1.1048923 1.0444446 1.0690314 1.2126646 0.9546215
1.156355 1.0936307 0.98889554 1.034746 1.086689 1.1286267 1.1597426 1.0430149
1.071637 1.1857924 1.1720645 1.1122006 1.013106 1.2079194 1.0019957 1.1238676
1.1690637 1.103837 0.95633364 1.1267928 1.067716 0.95597345 1.1260394 0.87681216
00000000: 642c 873f b5d7 943f ce84 903f 1c6d 8d3f
00000010: 5cb0 853f 05d6 883f 9838 9b3f 1362 743f
00000020: 7103 943f 17fc 8b3f 4228 7d3f 8f72 843f
00000030: a018 8b3f d776 903f 7272 943f 8381 853f
00000040: 672b 893f 0cc8 973f 3606 963f 975c 8e3f
00000050: 75ad 813f 1a9d 9a3f 6541 803f e5da 8f3f
00000060: e1a3 953f 884a 8d3f 48d2 743f bf3a 903f
00000070: ebaa 883f adba 743f 0f22 903f c376 603f

bn2.bias f4 [32]
-0.020074066 0.0029358873 0.0075335805 -0.026723469 -0.040642392 -0.020603828 -0.046343245 -0.0013051193
0.01780729 0.0035531735 0.07384223 0.05185618 0.05004748 -0.012391801 0.031026078 0.039641276
0.108533904 -0.0009952032 -0.009479167 -0.05578891 0.015751356 -0.0035129893 0.014535757 0.009046485
-0.031966463 -0.06718501 0.08932673 -0.0010561582 0.01842321 0.012193 -0.013186123 -0.035582352
00000000: 5e72 a4bc 0468 403b 41dc f63b 2deb dabc
00000010: a378 26bd 5cc9 a8bc 6ad2 3dbd 8910 abba
00000020: 98e0 913c 5cdc 683b 983a 973d 2567 543d
00000030: 96fe 4c3d fb06 4bbc 672a fe3c e45e 223d
00000040: 0647 de3d 7a71 82ba 824e 1bbc e982 64bd
00000050: fd08 813c 2e3a 66bb 6227 6e3c b537 143c
00000060: 44ef 02bd 4b98 89bd eff0 b63d ca6e 8aba
00000070: 46ec 963c 26c5 473c 9c0a 58bc cdbe 11bd

bn2.running_mean f4 [32]
-0.5121282 -0.3034801 -0.1488841 -0.009461796 -0.11222827 -0.19322738 -0.26716524 0.10732732
0.2757028 -0.137041 0.42176408 -0.21588951 0.063434914 -0.23816256 -0.4208015 -0.3547182
0.29000747 -0.12446429 -0.3612284 -0.014595981 -0.14895695 -0.18406165 -0.023456484 0.21275054
-0.37594983 -0.20395154 -0.1849349 0.31170464 -0.19684426 0.22985531 0.038599882 -0.0152278
00000000: d51a 03bf be61 9bbe 1375 18be a605 1bbc
00000010: efd7 e5bd 66dd 45be e2c9 88be 6dce db3d
00000020: eb28 8d3e 7a54 0cbe 76f1 d73e 2412 5dbe
00000030: 2aea 813d e3e0 73be 4b73 d7be a09d b5be
00000040: dc7b 943e 22e7 febd eef2 b8be fb23 6fbc
00000050: 2c88 18be a87a 3cbe d027 c0bc 47db 593e
00000060: 7f7c c0be acd8 50be 935f 3dbe c097 9f3e
00000070: 8b91 49be 315f 6b3e e91a 1e3d 067e 79bc

bn2.running_var f4 [32]
3.0569336 2.3437138 1.9515496 1.9846145 1.587884 1.7283468 2.3443804 1.0576524
4.443881 0.46699083 2.0333042 0.729431 0.74552417 0.19924755 11.49888 3.1866887
1.237518 2.9909775 3.2740707 6.380859 0.92388356 2.3075786 2.740406 2.4772959
1.8892487 0.78722084 1.8326391 3.8498988 0.79580474 1.5761663 0.7710876 0.954555
00000000: cda4 4340 68ff 1540 61cc f93f d907 fe3f
00000010: c83f cb3f 783a dd3f 540a 1640 2761 873f
00000020: 4634 8e40 6c19 ef3e a821 0240 fdbb 3a3f
00000030: acda 3e3f 8d07 4c3e 6afb 3741 b5f2 4b40
00000040: fd66 9e3f 2d6c 3f40 608a 5140 ff2f cc40
00000050: a283 6c3f 5eaf 1340 d062 2f40 048c 1e40
00000060: e7d2 f13f 4e87 493f eb93 ea3f be64 7640
00000070: dcb9 4b3f d1bf c93f ff65 453f b75d 743f

graph_proj.weight f4 [32, 32]
-0.071665175 0.03184448 -0.042946745 0.040736075 0.06673647 0.008691017 0.036465637 0.101391636
-0.04225493 0.08742763 -0.12145506 0.058285363 -0.021467166 0.0029199128 0.087846965 0.013142569
0.120837584 -0.018203918 -0.05185153 0.093045525 -0.056864705 0.051644474 0.10504755 0.09044104
-0.037676476 -0.014338569 -0.046914455 -0.044266198 -0.022792222 -0.09619583 0.06910009 0.058471102
-0.032236405 -0.005204135 0.15260758 -0.0010700023 0.0861539 0.14912628 -0.00024575254 -0.13324286
0.10540034 -0.05743975 0.1238424 -0.055154838 0.013208662 0.015351078 -0.022434918 0.006859742
-0.14180835 -0.038748965 0.0010781472 0.06706789 0.027379185 0.078938775 0.055843975 0.10264628
0.0005135924 -0.022446344 -0.030496074 0.038430754 -0.043320358 0.041722104 0.04066672 0.027452273
0.106256425 0.029625148 0.08803491 -0.016264427 -0.06522764 0.09172973 0.07846553 0.110231206
0.04231677 -0.0061890497 -0.104432754 -0.08235074 0.0010940268 0.084350124 -0.0132326055 -0.060026295
0.061796598 -0.042738605 0.04017417 -0.052392792 -0.09017705 -0.031349137 -0.00344841 0.032744747
0.06870864 -0.033236243 -0.084205605 0.019167768 -0.012845848 -0.0013764624 0.07673101 -0.017363014
0.06763878 0.040930368 0.015701253 -0.007654211 -0.030804638 -0.09078052 -0.00465378 0.030076224
0.053735845 -0.006727965 0.09260628 -0.026710304 0.013499754 -0.032824513 0.0276724 0.018461214
0.032479357 0.0024357752 -0.014034754 -0.04642396 -0.040493958 -0.054098576 0.059159953 -0.033573836
0.015625961 -0.03448041 -0.00622 0.064146444 0.012059579 -0.022968106 0.035069466 0.08356705
0.08843394 -0.035096485 0.0002315277 -0.10142632 -0.036353666 0.058086045 -0.07041142 -0.036390632
0.057963714 0.057747673 -0.09518351 0.025304252 0.025363758 0.035741635 0.06376039 0.04987942
0.06951811 -0.0010822536 0.03324529 -0.037356444 0.018139992 -0.030125733 0.019883374 0.050883148
-0.024843678 -0.013683521 0.03364443 0.024899287 0.059696127 0.0468831 -0.04170565 -0.07868816
0.0177523 0.009746296 0.01498764 0.0820986 0.03730209 -0.044124156 -0.04996213 0.09436926
-0.011755678 -0.057279073 -0.10416245 0.031813942 0.00940177 -0.039484907 -0.12501551 0.00023373525
0.03869554 -0.009492107 -0.04567159 0.06379755 -0.035602953 0.049499307 -0.10427634 -0.08228564
-0.012882073 0.10421489 0.015639896 -0.073733546 0.045521345 -0.07688113 -0.07019205 0.06916606
0.095662884 0.02885332 0.025634374 0.10309941 -0.09165629 0.06460934 -0.021720728 -0.007868398
0.07281562 -0.06471509 0.045223955 -0.041634362 0.040005386 -0.015303229 0.07662461 0.056449708
-0.06530019 -0.064609505 0.11265712 -0.040458124 0.00654277 0.04162685 -0.03514909 0.09579963
0.040324077 -0.021393318 0.003409897 0.028831448 0.10134504 0.088559434 -0.049859986 -0.007500188
0.12415054 0.039399058 0.020731099 0.030093614 0.008843089 -0.012978842 -0.0548745 0.11822347
0.10566806 -0.05708169 -0.17039159 0.014802535 -0.13843365 0.046535827 -0.16735853 -0.07351294
-0.113075286 0.13821526 -0.008854342 0.14259796 0.020617532 0.08425122 0.057523757 0.109468035
0.09999251 -0.006455647 -0.077582635 0.079474874 0.09476554 -0.08414283 -0.077129774 -0.15065154
00000000: 31c5 92bd 5c6f 023d ede8 2fbd dfda 263d
00000010: 21ad 883d c464 0e3c fe5c 153d 6ba6 cf3d
00000020: 8113 2dbd 420d b33d 6ebd f8bd a2bc 6e3d
00000030: e9db afbc 025c 3f3b 1ce9 b33d ee53 573c
00000040: b279 f73d 6220 95bc 4562 54bd a78e be3d
00000050: f7ea 68bd 2889 533d 2b23 d73d 2739 b93d
00000060: a652 1abd 51ec 6abc 5f29 40bd 7950 35bd
00000070: c1b6 babc 5202 c5bd 5984 8d3d 657f 6f3d
00000080: 520a 04bd 7387 aabb 2945 1c3e 523f 8cba
00000090: 7571 b03d 8fb4 183e 59d8 80b9 d170 08be
000000a0: 22dc d73d f145 6bbd 16a1 fd3d 0aea 61bd
000000b0: 2569 583c 1683 7b3c 6fc9 b7bc b0c7 e03b
000000c0: 3536 11be 3cb7 1ebd 9e50 8d3a e45a 893d
000000d0: 504a e03c a7aa a13d a7bc 643d 3638 d23d
000000e0: 9aa2 063a 65e1 b7bc e7d2 f9bc 9169 1d3d
000000f0: b070 31bd cce4 2a3d 2692 263d 97e3 e03c
00000100: f89c d93d 70b0 f23c a64b b43d fa3c 85bc
00000110: 1296 85bd ccdc bb3d 89b2 a03d e6c0 e13d
00000120: 5954 2d3d 83cd cabb d7e0 d5bd 81a7 a8bd
00000130: 7365 8f3a c2bf ac3d 92cd 58bc 22de 75bd
00000140: 6e1e 7d3d ad0e 2fbd ac8d 243d d399 56bd
00000150: bfae b8bd f467 00bd b8fe 61bb 5b1f 063d
00000160: 1eb7 8c3d ba22 08bd fd73 acbd b905 9d3c
00000170: 6477 52bc 6a6a b4ba 2625 9d3d e13c 8ebc
00000180: 3386 8a3d 9aa6 273d ea9f 803c 2dd0 fabb
00000190: 025a fcbc 23eb b9bd bc7e 98bb 6a62 f63c
000001a0: 1e1a 5c3d 4376 dcbb 5da8 bd3d 91cf dabc
000001b0: 122e 5d3c ff72 06bd 3bb1 e23c f93b 973c
000001c0: 1309 053d 87a1 1f3b 06f2 65bc 0d27 3ebd
000001d0: fedc 25bd 7896 5dbd b551 723d b884 09bd
000001e0: 0402 803c 553b 0dbd 24d1 cbbb 365f 833d
000001f0: 8a95 453c 9c27 bcbc 00a5 0f3d 3425 ab3d
00000200: db1c b53d 55c1 0fbd 3ec6 7239 9ab8 cfbd
00000210: 95e7 14bd a2eb 6d3d dd33 90bd 580e 15bd
00000220: 5c6b 6d3d d388 6c3d 92ef c2bd dd4a cf3c
00000230: a8c7 cf3c d265 123d cf94 823d 5d4e 4c3d
00000240: 835f 8e3d 68da 8dba 372c 083d 1203 19bd
00000250: 529a 943c 3eca f6bc 75e2 a23c d96a 503d
00000260: f884 cbbc d930 60bc bece 093d 97f9 cb3c
00000270: ed83 743d 7e08 403d 8bd3 2abd 4227 a1bd
00000280: 456d 913c eeae 1f3c b88e 753c 5023 a83d
00000290: 14ca 183d 88bb 34bd 17a5 4cbd ac44 c13d
000002a0: e39a 40bc 769d 6abd 1f53 d5bd 564f 023d
000002b0: e209 1a3c edba 21bd 1104 00be d416 7539
000002c0: 377f 1e3d c884 1bbc 2212 3bbd 4aa8 823d
000002d0: 67d4 11bd c9bf 4a3d d58e d5bd 6085 a8bd
000002e0: 550f 53bc 9e6e d53d 3d1f 803c 9d01 97bd
000002f0: 9774 3a3d db73 9dbd d9c0 8fbd efa6 8d3d
00000300: e7ea c33d cc5d ec3c 2eff d13c c925 d33d
00000310: 4bb6 bbbd e751 843d abef b1bc 74ea 00bc
00000320: 5b20 953d 5889 84bd c13c 393d cb88 2abd
00000330: b0dc 233d 65ba 7abc 5ded 9c3d cf37 673d
00000340: 1bbc 85bd fd51 84bd c7b8 e63d 6bb7 25bd
00000350: bc64 d63b ea80 2a3d 7ef8 0fbd 9932 c43d
00000360: dc2a 253d 0a41 afbc 9478 5f3b ee2f ec3c
00000370: fd8d cf3d a65e b53d fc39 4cbd 23c4 f5bb
00000380: a342 fe3d e860 213d 44d4 a93c e286 f63c
00000390: 9be2 103c 35a5 54bc 15c4 60bd 261f f23d
000003a0: 7f68 d83d 7dce 69bd 227b 2ebe 5586 723c
000003b0: 8dc1 0dbe 5a9c 3e3d 0960 2bbe f48d 96bd
000003c0: 0494 e7bd 4d88 0d3e cd11 11bc 3305 123e
000003d0: 19e6 a83c e78b ac3d 089e 6b3d c730 e03d
000003e0: e0c8 cc3d e489 d3bb a5e3 9ebd b9c3 a23d
000003f0: 6f14 c23d 1353 acbd 37f6 9dbd 6644 1abe

graph_proj.bias f4 [32]
0.07244882 0.1306859 0.0005091873 -0.03682377 -0.039925743 -0.053671584 0.07104334 -0.20711271
0.1677774 -0.0010240944 -0.11004622 -0.037481014 -0.10303736 -0.16747738 0.00095253286 -0.061051246
-0.07229536 -0.00922052 -0.00873264 0.059114173 -0.16167691 -0.012280459 0.011604807 -0.12802917
0.18087009 -0.08722485 0.15687776 0.17093076 0.0123548275 0.18713912 -0.17798197 -0.0051372116
00000000: 0c60 943d 86d2 053e fb7a 053a 85d4 16bd
00000010: 2d89 23bd bcd6 5bbd 2c7f 913d 5b15 54be
00000020: d7cd 2b3e e83a 86ba ea5f e1bd b185 19bd
00000030: 4005 d3bd 317f 2bbe 66b3 793a df10 7abd
00000040: 970f 94bd aa11 17bc 5913 0fbc b421 723d
00000050: a28e 25be fa33 49bc 1722 3e3c 141a 03be
00000060: 0236 393e f1a2 b2bd 90a4 203e 7908 2f3e
00000070: e76b 4a3c 66a1 3f3e e840 36be 0e56 a8bb

temporal_attn.attention.in_proj_weight f4 [96, 32]
-1.4889541e-05 1.2703188e-05 -1.2846136e-06 1.0680883e-05 5.064922e-08 -2.0424716e-06 -7.9115125e-07 1.722317e-07
3.716554e-07 2.3320801e-05 -2.1092976e-05 -5.5728134e-07 2.677381e-06 -1.1109189e-06 -8.185517e-07 5.8206315e-06
1.4597481e-05 6.1669934e-06 -3.0287879e-09 -1.0626147e-05 5.3489515e-07 -8.7352856e-07 1.8391418e-06 2.7272545e-06
3.2994326e-06 5.4280144e-06 1.7432859e-07 -2.0544522e-07 1.4105664e-05 3.1933467e-08 4.081926e-10 1.5572139e-06
-1.4262486e-05 9.627143e-06 -1.1674845e-05 -8.072871e-06 -1.3821204e-06 -1.0581863e-06 -4.4412494e-07 -4.848398e-07
-2.2724565e-05 1.9942425e-05 -2.7281021e-06 1.9336749e-06 -2.7956119e-06 -1.25909755e-05 7.755674e-06 2.9906328e-06
-3.5784296e-06 -3.0711403e-06 -8.8006345e-07 3.784854e-07 1.4589526e-05 -1.7042808e-08 -6.8864624e-06 -1.0494259e-05
-5.388428e-06 -1.9553102e-06 4.983647e-06 -5.385082e-06 -4.179359e-06 -1.4635883e-05 -1.5236304e-06 3.9916163e-06
-2.730941e-06 1.1940344e-05 3.8329404e-07 -1.4404848e-05 3.144507e-06 5.916604e-07 -2.5220843e-06 7.8369e-06
-4.2736082e-07 6.7039423e-07 1.4652396e-05 -4.227468e-06 1.6342002e-06 7.508844e-06 -1.2511633e-05 -1.5158776e-06
1.1653375e-05 1.45455815e-05 -1.0605594e-05 -9.096622e-06 -3.14591e-06 -9.594803e-06 8.213118e-06 -6.4597416e-06
-3.7078069e-06 7.641155e-07 -5.2832445e-07 -3.7259483e-06 -4.9472956e-06 -2.4628741e-06 -7.369528e-07 -1.8889004e-06
-3.605459e-06 -3.225357e-07 2.3365255e-06 -2.0543243e-06 4.2415877e-06 -4.8937875e-07 4.9643395e-06 -1.069889e-05
1.0015759e-05 -3.2785556e-06 -1.4156935e-05 -2.6978282e-06 -1.0274123e-05 -7.64149e-06 1.01316755e-05 3.9987228e-07
-7.850048e-08 3.2986754e-06 6.9039497e-06 -3.0380913e-06 4.439981e-06 4.512577e-06 -6.6432513e-06 -3.6803692e-06
7.750906e-06 4.1210274e-07 2.9182743e-06 -1.489854e-05 4.7420294e-06 1.1610845e-06 -8.398949e-06 7.606268e-06
5.726238e-07 -8.8158487e-07 -1.4907816e-05 3.0086946e-06 -2.6688356e-06 3.6242118e-06 -8.4723815e-06 9.738011e-06
4.9773557e-06 1.0776668e-06 5.380201e-06 3.4110126e-06 -1.1700289e-05 -2.6811622e-06 -2.352564e-06 2.0123969e-07
-4.7855037e-06 -5.2224873e-06 9.721653e-07 -6.5498766e-06 6.562276e-06 -9.158302e-06 2.8211937e-06 -6.739984e-06
4.669846e-07 6.1234584e-07 -2.7684092e-07 1.088043e-06 1.0896284e-07 4.8798147e-06 -1.9479862e-06 1.7935595e-06
3.6814015e-06 2.0153589e-06 -7.667262e-06 -5.5135604e-07 4.1625466e-07 -3.6415315e-08 1.9152212e-05 3.838104e-06
1.0729134e-05 -1.5418667e-07 -1.0797679e-05 4.718015e-07 4.6720453e-07 -3.7116122e-06 8.294363e-07 6.8667225e-07
-2.5836914e-06 -2.0019245e-06 1.2437082e-06 4.116403e-07 6.703245e-06 -2.9596126e-06 5.414395e-06 -3.836566e-06
5.103508e-07 1.4916018e-05 -5.1414045e-06 2.1956906e-05 7.347212e-06 1.0105144e-05 -1.081319e-05 1.656908e-07
2.2220634e-06 -7.879005e-06 -6.5074136e-07 -4.494742e-06 8.261037e-06 6.1499645e-06 -5.8007786e-06 9.739497e-07
-1.0212306e-06 -2.3949399e-06 8.924521e-06 -1.2932125e-05 -6.651588e-06 -1.48102645e-05 3.804382e-06 -9.013945e-06
-2.5220214e-07 -4.863793e-06 -6.539742e-07 -1.4850428e-05 -1.3746446e-06 9.768816e-06 1.0702932e-05 2.1208893e-06
6.246816e-07 -9.034402e-06 -1.4880329e-06 -9.196725e-06 1.8736517e-05 -1.4852565e-05 -2.3023392e-07 1.2221066e-05
1.2522794e-05 9.215398e-06 -2.7920364e-06 2.220803e-05 -2.8202512e-06 -2.5217673e-08 -6.2463373e-06 -3.8358066e-06
-9.566607e-06 2.0089585e-05 -5.201294e-06 6.717091e-06 9.4501956e-07 -4.6460063e-06 -1.4608793e-05 -2.720858e-07
-8.147895e-06 -9.243616e-06 -1.6932873e-06 2.1714442e-08 -4.4244566e-06 -2.3654275e-07 -1.4320848e-05 4.457928e-06
3.3090296e-06 7.2105377e-06 -1.1489196e-06 -6.922755e-08 -3.806337e-07 -3.336434e-06 -1.177952e-05 -4.517134e-06
00000000: 17ce 79b7 c71f 5537 fd6a acb5 0b32 3337
00000010: 6889 5933 6511 09b6 805f 54b5 b0ee 3834
00000020: ee87 c734 0aa1 c337 d2f0 b0b7 1598 15b5
00000030: 0ead 3336 e21a 95b5 72ba 5bb5 d84e c336
00000040: b4e7 7437 12ee ce36 0023 50b1 f446 32b7
00000050: b795 0f35 6d7c 6ab5 6ed8 f635 e005 3736
00000060: d26b 5d36 4a22 b636 142f 3b34 5a98 5cb4
00000070: 5ea7 6c37 3827 0933 0068 e02f 7601 d135
00000080: e948 6fb7 4484 2137 14df 43b7 b870 07b7
00000090: 4c81 b9b5 0107 8eb5 1170 eeb4 f025 02b5
000000a0: a2a0 beb7 084a a737 7014 37b6 48c4 0136
000000b0: 3f9c 3bb6 d43d 53b7 5e1e 0237 aeb2 4836
000000c0: f424 70b6 ca19 4eb6 803d 6cb5 a332 cb34
000000d0: 89c5 7437 8865 92b2 4312 e7b6 8010 30b7
000000e0: 3ece b4b6 f937 03b6 3439 a736 81b1 b4b6
000000f0: 6c3c 8cb6 a48c 75b7 8b7f ccb5 b9ef 8536
00000100: 3645 37b6 6353 4837 88c7 cd34 5aac 71b7
00000110: 3806 5336 98d2 1e35 1441 29b6 3b7b 0337
00000120: 0670 e5b4 24f5 3335 90d3 7537 acd9 8db6
00000130: b156 db35 7bf4 fb36 0ee9 51b7 2875 cbb5
00000140: dd82 4337 cc08 7437 aeee 31b7 b29d 18b7
00000150: 521e 53b6 5df9 20b7 13cb 0937 c2c0 d8b6
00000160: a3d3 78b6 9e1d 4d35 2ed2 0db5 4e0b 7ab6
00000170: f200 a6b6 db47 25b6 03d3 45b5 2086 fdb5
00000180: 50f5 71b6 f828 adb4 34cd 1c36 06dd 09b6
00000190: f652 8e36 da5d 03b5 5a93 a636 627f 33b7
000001a0: 5b09 2837 2805 5cb6 9383 6db7 560c 35b6
000001b0: 065f 2cb7 f333 00b7 37fb 2937 07ae d634
000001c0: 1894 a8b3 d05e 5d36 7aa8 e736 03e2 4bb6
000001d0: 25fb 9436 be6a 9736 18e9 deb6 43fc 76b6
000001e0: e309 0237 f83e dd34 92d7 4336 bef4 79b7
000001f0: b91d 9f36 8fd6 9b35 36e9 0cb7 5839 ff36
00000200: 68b6 1935 0da6 6cb5 951c 7ab7 fbe8 4936
00000210: 3f1a 33b6 7c37 7336 9a24 0eb7 7060 2337
00000220: 2903 a736 59a4 9035 9387 b436 c0e8 6436
00000230: 5c4c 44b7 04ee 33b6 bee0 1db6 5814 5834
00000240: 2a93 a0b6 d33c afb6 587b 8235 03c7 dbb6
00000250: 8631 dc36 9ca6 19b7 bd53 3d36 0628 e2b6
00000260: e0b5 fa34 1660 2435 baa0 94b4 df08 9235
00000270: f4fe e933 4abd a336 26ba 02b6 3cba f035
00000280: ff0d 7736 9a3f 0736 a4a2 00b7 e600 14b5
00000290: 9b79 df34 1067 1cb3 10a9 a037 10c9 8036
000002a0: 4801 3437 828e 25b4 ae27 35b7 e84b fd34
000002b0: 1ad4 fa34 0315 79b6 6ea6 5e35 c253 3835
000002c0: 7b63 2db6 cd58 06b6 7ded a635 69ff dc34
000002d0: 70ec e036 c29d 46b6 4dad b536 dabb 80b6
000002e0: 0aff 0835 cf3f 7a37 5484 acb6 1930 b837
000002f0: 1288 f636 4389 2937 4c6a 35b7 bee8 3134
00000300: c21e 1536 1230 04b7 9bae 2eb5 8ad1 96b6
00000310: e298 0a37 cb5b ce36 4fa4 c2b6 a8b8 8235
00000320: 3711 89b5 c1b8 20b6 87ba 1537 0ef7 58b7
00000330: b530 dfb6 9a79 78b7 c94e 7f36 993a 17b7
00000340: 6666 87b4 aa33 a3b6 c48c 2fb5 1a26 79b7
00000350: 6e80 b8b5 bfe4 2337 be90 3337 9a54 0e36
00000360: cbaf 2735 7692 17b7 6cb8 c7b5 a24b 1ab7
00000370: 5d2c 9d37 482f 79b7 3836 77b4 1409 4d37
00000380: fe18 5237 d59b 1a37 d25e 3bb6 624b ba37
00000390: 8c43 3db6 409e d8b2 a197 d1b6 54b5 80b6
000003a0: 4480 20b7 0e86 a837 c686 aeb6 5f63 e136
000003b0: 40ad 7d35 e4e4 9bb6 4a18 75b7 3013 92b4
000003c0: f1b2 08b7 0715 1bb7 e944 e3b5 9086 ba32
000003d0: cb75 94b6 60fc 7db4 9343 70b7 4f95 9536
000003e0: b210 5e36 0cf2 f136 9434 9ab5 40aa 94b3
000003f0: e659 ccb4 80e7 5fb6 a7a0 45b7 e391 97b6
